trained_model.npz (npz, 408196 bytes, 4 tensors)

weights_input_hidden f8 [784, 64]
000000 44 4f 45 ad bd 13 76 3f f7 18 fd 8f 48 e7 aa 3f
       0.005389920163299259 0.05254580266641711
000010 84 f3 9f 51 c4 48 95 bf 9f 9c 46 b6 4a 39 b4 3f
       -0.020785396081908228 0.07899920415967408
000020 fc 55 fe 42 6c 3d 51 3f aa 82 2c 67 3a d7 99 3f
       0.0010522420161341852 0.025235092684968187
000030 1d 07 8f ce fb 75 a2 3f 7a c3 14 4c d6 7f 77 bf
       0.036056393589673365 -0.005737149332433295
000040 4f a1 5f aa f4 e7 9d 3f d2 31 1e 20 35 9a 44 bf
       0.0292051533687368 -0.0006287345315612541
000050 33 0b 73 b3 4f ab 90 3f 3f 79 f0 79 20 89 b1 bf
       0.016278500869485412 -0.06849863984141268
000060 4e 2b 2a 76 56 15 4b bf 87 eb 06 89 94 15 97 3f
       -0.0008265182662666544 0.022543259490457792
000070 ba 25 a1 10 39 4d 7d bf 6d a2 53 e6 53 e2 91 bf
       -0.007153723630901105 -0.017464934285188628
000080 c6 dc c7 0b e6 1d 90 bf f0 70 49 52 40 1d 9e bf
       -0.015739054173505428 -0.029408459684746313
000090 b8 f8 6d 89 c5 35 96 bf 7c 76 69 9c 0e 3c af 3f
       -0.021689497483287495 0.061005074113137575
0000a0 0f f5 ec 07 9a b0 b7 3f 54 c5 df dc 56 1e 8d 3f
       0.09253847783562129 0.014218023887198207
0000b0 7f 75 5d d9 59 55 a0 bf 1e 96 f8 02 8d c3 a9 bf
       -0.03190117624647381 -0.05032005940692506
0000c0 0e 8b 6b 3f 05 09 74 3f 1d 95 3a ab 27 fa 86 3f
       0.00489141511818293 0.01121932021426147
0000d0 83 42 a8 b7 fc 5b 81 bf 3d 6f 56 ca ef 39 97 3f
       -0.008476232867026262 0.022681948399266395
0000e0 b3 2d 9d e7 6e fe 95 bf 4a 62 71 58 0e d7 b3 3f
       -0.021478398214908 0.07750024470568309
0000f0 99 91 6a 55 00 c7 9e bf 5e 1f e3 74 19 dc 66 3f
       -0.03005600472774148 0.002790498466399712
000100 c1 41 26 3f 78 c0 98 bf 42 de 13 69 43 88 92 bf
       -0.0241717136901245 -0.018097928322246888
000110 bc 40 78 db c2 76 93 3f 1b 4c 8a df 79 f9 72 3f
       0.019007725377435433 0.004632450167849657
000120 84 eb 14 eb 6a 23 b2 bf cb 0f f3 37 84 f2 a5 bf
       -0.07085293044376156 -0.042865878896492036
000130 87 38 6b 0d ff 47 8c bf 78 64 dc eb b8 52 92 bf
       -0.013809197041521294 -0.017893685718352675
000140 d2 93 93 29 37 6b 9d 3f 09 cb b4 38 2e 43 ac 3f
       0.028729307091356855 0.05520004694189679
000150 b7 5c 15 b0 95 81 a2 bf cf 7b 5c af c2 c0 a6 3f
       -0.03614490293937805 0.04443939581528122
000160 c4 b7 af 3c 06 c6 9d bf b5 bf c2 19 bf 6b a0 3f
       -0.029075715497974178 0.03207204045736437
000170 c2 1c f0 ec 72 de 73 bf 11 a6 ed 79 44 45 a7 3f
       -0.004850815704237012 0.04545034397490267
000180 45 c5 75 65 a4 6c b3 bf a4 9b 3d 8c fe c1 b8 bf
       -0.0758764980034999 -0.09671011852115768
000190 fd fc 72 77 57 bb 8d 3f 58 a0 7f 10 58 e3 90 3f
       0.014517482121276343 0.01649224854182338
0001a0 fe 5f c3 17 ac 4c 72 3f 39 c7 7f 70 39 df 79 bf
       0.004467651593778042 -0.006316398976183462
0001b0 6e 3d 3d 87 57 6d a3 bf 35 b5 db 6e 62 89 a2 3f
       -0.037943587549871136 0.0362044105839722
0001c0 53 9a 68 19 30 27 8b bf be 0c bc 90 58 77 89 bf
       -0.013258338714036066 -0.012434665600727587
0001d0 cc 7b df 07 40 ce 94 3f e5 38 38 b5 73 b1 bb 3f
       0.020318031769303066 0.108176452391692
0001e0 8d 6d 98 e8 ce c4 a1 3f 3e 41 5d 6b 02 a7 a6 3f
       0.03470465268420773 0.04424293099021036
0001f0 c5 24 82 7c b6 a1 b4 3f 90 41 74 32 ac d7 95 bf
       0.08059254207377638 -0.02133053834865134
000200 a2 52 2c 73 2d 00 68 3f 90 6a 70 ea 15 8e 78 3f
       0.0029297721570265703 0.005994878395564243
000210 bb 16 de 94 89 f0 95 bf d5 c0 29 44 78 06 26 bf
       -0.021425389968064517 -0.00016803949445743394
000220 d4 12 5b 05 f6 6e 9e 3f 33 05 44 54 6e 89 71 bf
       0.02972015769661847 -0.004281455014507873
000230 48 da 8a ab 73 af a4 bf 9d 6a 84 d0 e3 44 94 bf
       -0.04040109128020625 -0.01979404411495499
000240 b1 dd 26 53 19 da 9c bf 88 ba fe 87 11 19 90 3f
       -0.028175731373009053 0.01572062866733373
000250 ad 7c 05 6a c2 25 a5 bf 98 24 3e 29 71 55 99 bf
       -0.04130370659071878 -0.024739997999436797
000260 de 85 32 a4 8d 59 a4 3f c4 30 b0 3e 1b fb 3e 3f
       0.03974573735582586 0.0004727307811556276
000270 d6 3b 4e 6b af 00 83 bf 83 e6 29 50 ab f3 9b 3f
       -0.009278650724608466 0.027296711700250952
000280 c1 d0 0e 73 ba 4a ae 3f 2b 4c 3a fe d5 35 86 3f
       0.059163881821775906 0.010844871350206805
000290 5e 41 7a 49 d7 71 a6 3f 0c 73 5f 4a ca 3d a6 bf
       0.04383728763525839 -0.04344017179366774
0002a0 5c 09 6f cb e7 0a 82 bf fb 77 58 a7 2e 08 aa 3f
       -0.008809862991146993 0.050843675544669474
0002b0 25 5d 7b dc b7 46 b4 3f 8d 48 07 7e 3c 8c 9b bf
       0.07920407421930926 -0.02690214652268046
0002c0 1b 94 da 5b c8 9a 94 3f bc 58 24 3b 31 66 75 bf
       0.020121698957741168 -0.005224411305127127
0002d0 c5 4d c6 ad b0 f9 96 bf a0 22 c2 4b 77 96 7a bf
       -0.02243686733852514 -0.006491151809435408
0002e0 7d ef 00 eb a8 e3 8c 3f 9a b9 61 39 32 d5 af bf
       0.014106101676695232 -0.06217343283138917
0002f0 39 24 3c c5 02 62 64 bf af 3e db e5 a3 8c b2 bf
       -0.002488141451867179 -0.07245849954346782
000300 d1 0a 29 ce 80 6f 90 3f e3 e4 7f d6 fc 15 73 bf
       0.016050350745227263 -0.00465964093017954
000310 8e 8e 7c c2 f2 98 56 bf 26 4b f9 75 42 76 ad bf
       -0.0013792391491244424 -0.05754287424192332
000320 99 80 cd a9 7a 76 91 3f 73 cc 92 36 bd a9 a9 3f
       0.017053524602829915 0.05012313166789619
000330 d5 f5 15 9c dc 13 91 3f 6c 33 41 3c 24 bc 81 bf
       0.016677329088897814 -0.008659632767512547
000340 c1 62 5d bb ff a0 a5 bf e8 9b 48 f2 e5 5b a5 3f
       -0.04224394952934097 0.04171675283969717
000350 9a 5d e7 fb bd e0 63 3f 70 1c 21 25 7f 9d 87 bf
       0.0024265013337118726 -0.011530869789693393
000360 08 61 dd e9 c7 95 ad 3f d9 39 dc ef 08 96 78 bf
       0.057783362672752914 -0.006002459440209462
000370 78 87 b0 c8 14 9b a9 bf 36 3e 80 c8 ab f1 8e 3f
       -0.050011300562132044 0.01510938840513552
000380 fe 26 73 dc ff b0 92 3f 76 39 fc 04 3c 17 a4 3f
       0.018253324346722437 0.0392397647939217
000390 3b 11 00 15 6a 81 6e 3f 67 be 7f 39 d7 9e a1 3f
       0.0037238189615910445 0.034414983529015335
0003a0 38 0c 33 89 7b a1 a6 bf 70 b2 f2 b3 28 96 74 3f
       -0.04420076417729785 0.00502601527766143
0003b0 df e0 35 58 36 a2 98 bf 23 97 ae b2 5b 78 94 3f
       -0.02405629075426041 0.01999038007820454
0003c0 08 f6 5b 0c ac 3f af bf 45 06 92 7d 4d 5e b0 bf
       -0.061032654293722344 -0.06393894496616166
0003d0 f8 14 ba 83 30 46 ab 3f 8a f7 79 a7 1f d0 a0 3f
       0.053269878463689524 0.03283785743131691
0003e0 b5 14 5b 65 b2 7a 6c 3f 02 ef b9 a6 cc 13 9f 3f
       0.003476475171597738 0.030348966289678543
0003f0 18 e6 db 89 13 a6 81 3f 40 19 a0 9b cf 1d a3 3f
       0.008617546696302589 0.037336814639319815
000400 50 8e 5b bb c8 d8 a9 bf f4 8e 5c 96 92 16 8c bf
       -0.05048205649452753 -0.013714928830786267
000410 8a 83 e1 f2 10 be a7 3f 44 c8 39 2a 78 cf 8f 3f
       0.0463719650731554 0.015532435215593783
000420 a1 f4 15 8d 96 b8 71 bf d4 d0 7d d8 b7 a0 9c bf
       -0.004326427545831597 -0.027956841076460417
000430 f8 d3 b9 c0 5b 48 8a bf 5e 5e a1 52 d2 fe 9a 3f
       -0.012833325213458466 0.02636269215903863
000440 1c 04 f7 f1 0f 85 a9 3f 25 81 c3 7c e7 99 85 bf
       0.04984330967591452 -0.010547455306039464
000450 f0 fb e7 4b ef 60 a6 bf 81 3a 0d 2c c8 e0 82 bf
       -0.043708303466693965 -0.009217799991941835
000460 a5 08 8f 94 fc 95 6a bf 16 62 33 3b 95 63 51 bf
       -0.003245347329056863 -0.0010613400780156205
000470 36 74 49 c9 a9 90 a2 bf c6 2b 35 6d 84 14 a6 3f
       -0.036259942837866196 0.04312528451062962
000480 32 b5 d1 1a e3 7a 90 bf da 62 cb eb 6e 70 9b 3f
       -0.01609377719107847 0.026796086446526292
000490 99 a8 7a 6c a0 52 9e 3f ed 8d 94 25 6f dd 95 bf
       0.029612070675888977 -0.021352516812056455
0004a0 29 df 04 83 38 3c a4 3f 08 15 75 2c c6 e7 70 3f
       0.03952194785455127 0.004127287021508559
0004b0 57 eb fe 23 db 8a 89 bf 8f f4 f6 bd 5e 67 96 bf
       -0.012471878086093886 -0.021878700584910645
0004c0 bb ce d8 a6 b0 2d 8b 3f c6 26 eb 56 be 69 98 3f
       0.01327074059654564 0.023840879492843546
0004d0 c8 70 9f 32 b4 c9 8b 3f e0 4f 7d de a0 91 9d bf
       0.013568313403020574 -0.028875840739900016
0004e0 7d 85 96 e9 35 16 8d bf d0 db d6 ac d1 b1 78 bf
       -0.014202519598998315 -0.006028956454819004
0004f0 cb 11 0b 29 0c 48 6b 3f ae 81 74 8c e3 d6 7f 3f
       0.003330253363261292 0.007773293363499452
000500 a6 3f fc 07 32 2f 78 bf b4 21 30 23 58 6e 95 bf
       -0.005904384073588098 -0.02092874254961581
000510 5f fa a5 cb 1f 25 7a 3f 80 98 7b b4 d6 42 96 bf
       0.006383060647179833 -0.021739344373508107
000520 35 0e 32 4c 12 7e a4 bf 00 c0 93 f8 62 b3 7f 3f
       -0.04002434902306754 0.00773943577335956
000530 3b 9b 93 00 6d 16 a2 bf 73 4f 4e db 36 dd ab bf
       -0.035327345199951364 -0.05442210604738209
000540 20 e4 92 cd e4 bd a0 3f c7 f4 f4 e6 7f 1d 84 bf
       0.032698774427849964 -0.009821891055816668
000550 19 92 9c a4 e8 a9 a0 3f f2 8f 51 e4 24 b7 81 bf
       0.03254630097788808 -0.00865010091565208
000560 4f 53 d1 e3 1f 76 73 3f 5e 14 9c e1 3d 2c 88 3f
       0.004751324243518719 0.011803134391366207
000570 39 0d 1e 3e 92 ec a3 bf 5a d1 1e d8 73 cb a0 bf
       -0.038914270479859465 -0.03280221951664215
000580 53 fd f3 39 17 3d 7f bf dc a1 20 76 ba 00 81 bf
       -0.007626620033306014 -0.00830217049595288
000590 4f 8e 0b 49 53 6d a2 3f da 82 bd 20 c6 0c 96 3f
       0.035990336100237934 0.021533103702838875
0005a0 53 75 f0 66 7d 58 82 3f e6 0e b0 4e 78 a0 99 bf
       0.008957843498189766 -0.025026206782071812
0005b0 ac 46 80 4f e0 96 b1 3f 76 61 76 31 b5 a3 91 3f
       0.06870843831009193 0.017226058143565003
0005c0 16 cc 18 a3 32 91 9f 3f 43 01 4e 23 03 f3 9f 3f
       0.03082732315506228 0.031200455694034856
0005d0 d5 4f b7 cb 04 4d 8f 3f a4 70 b4 1e ee 88 9b bf
       0.015283620325966677 -0.02688953459174627
0005e0 92 67 0a 36 e8 58 96 bf a3 79 fa 90 bc ab 9a bf
       -0.021823528574351388 -0.026045748089580944
0005f0 aa 29 cf 30 c1 29 a5 3f 13 33 c0 33 bd 20 83 bf
       0.041334187706144235 -0.009339788572128726
000600 78 c6 77 45 1c da 83 3f 4e a2 77 9d 4f d4 7f bf
       0.009693356389991012 -0.0077708349194628
000610 d6 2b c0 f2 cc 7a 77 3f 0c ae e3 33 9c fe 93 bf
       0.005732346133309604 -0.019525948206974106
000620 26 16 01 e1 ab 8e a1 bf fa 17 be 2e 0e b7 a4 bf
       -0.0342916214145073 -0.04045910187328157
000630 13 d8 d9 23 7a 1b a6 3f cd 83 87 01 19 9f 91 3f
       0.04317838370927531 0.01720847198328439
000640 95 9f 04 24 15 a7 98 bf b8 1c a4 5d 11 80 6e bf
       -0.02407486946427147 -0.003723176877545944
000650 03 68 05 ec a5 31 a5 bf 30 a9 4f 22 7b ab b3 bf
       -0.04139441019169967 -0.07683534228968791
000660 bf d8 3e 19 91 4d 71 3f 1a 7b b2 fc 48 ac 9b 3f
       0.004224364081826858 0.027024403022205858
000670 8c d7 44 b1 f6 a7 88 3f 63 c4 ff 05 51 58 9d 3f
       0.012039115223710949 0.02865721320262472
000680 d8 df 4f 5c 65 aa 8f 3f 85 cb 77 3a 74 3a 7c 3f
       0.015461723212851483 0.006891683594846825
000690 c1 3f 9b 1b 1f c3 95 3f a5 95 58 65 e6 51 a8 bf
       0.021252142009700273 -0.04749984728941151
0006a0 71 f1 51 70 a3 92 ac bf 10 8e d2 d9 60 ed 72 3f
       -0.05580626245589116 0.0046209128605912
0006b0 79 a9 83 e2 fb f3 94 bf 0e 6f d0 ba 2c 51 9b 3f
       -0.02046197481187437 0.026676844503625445
0006c0 6b da f9 9f d2 d2 5c bf cc 74 cf 52 0b e3 a8 bf
       -0.0017592484363412552 -0.04860721002453658
0006d0 f4 9f c9 a0 32 3a a7 bf 61 47 ad 95 4f 31 b5 bf
       -0.04536588871707173 -0.08278367428036183
0006e0 40 3c 64 4b 6b 3d a1 bf 9a d0 32 30 e0 f0 9d bf
       -0.03367171569163263 -0.029239180509379105
0006f0 6e c5 ca 98 b9 6d a0 3f 06 e5 34 3f 0e 59 aa bf
       0.03208713522088656 -0.05146069070401364
000700 90 da 72 8c 76 15 90 bf 74 d3 fc 10 d8 f1 9f 3f
       -0.01570687515478625 0.031195999180642045
000710 74 e6 78 68 49 cf 91 3f 0f 96 aa e3 86 7d 96 bf
       0.017392298699837785 -0.02196322216572893
000720 54 8f 1a 0e 1b 74 ab 3f fe 79 fc f4 67 2f 9e 3f
       0.053620191070222006 0.02947771485116312
000730 67 9f 8c 1e 6c 35 82 3f 55 93 98 e8 46 b8 b4 bf
       0.00889095752934539 -0.08093684366811023
000740 2e fe 01 1b ef 46 95 3f c6 c7 a5 03 5b 4f 7f bf
       0.020778404258179055 -0.007644038700492522
000750 89 e4 9a f0 15 7c ab bf 04 e6 4c a5 06 0e 8a bf
       -0.05368107378075943 -0.012722064895217329
000760 33 98 4e d3 72 14 bd bf 24 d6 22 a0 ab 66 a0 bf
       -0.11359326990950151 -0.03203331308160909
000770 9a 72 22 a0 26 f3 64 3f 06 25 6f ef b1 23 96 3f
       0.00255734962509131 0.021620540846730506
000780 c1 dc f9 2b 73 46 a4 3f cb fe d0 6f 0c 2e 74 3f
       0.03959999000374515 0.004926727849180866
000790 1e 0d 68 15 c5 24 a2 3f 9d 53 93 9b 71 9d 98 3f
       0.03543678175267416 0.024038100357603665
0007a0 b6 2e d8 b3 33 cb 89 3f 21 91 f9 35 c2 16 8a bf
       0.012594608236234133 -0.012738721153433165
0007b0 ee 75 6a 69 63 66 a4 3f 55 c6 7b 58 6c 4a 72 bf
       0.03984366094412538 -0.0044655067683706156
0007c0 56 c9 5f 07 cc 58 9c bf ef 38 af 55 c4 b6 77 bf
       -0.027682483625491493 -0.0057895345043574705
0007d0 f2 2c 8f 77 a4 f9 a3 3f 6c 1a 71 71 5c ab 96 bf
       0.03901399573768484 -0.022138065742434085
0007e0 95 34 cb 8e 29 0a af bf 2a 45 a6 26 8f e7 9c bf
       -0.06062440746391321 -0.02822707818410667
0007f0 6e d8 3c 84 42 04 79 bf 83 60 48 a8 55 03 7d 3f
       -0.006107578115736796 0.0070832582464605024

weights_hidden_output f8 [64, 10]
000000 2a 92 80 8f 88 00 e0 bf 37 30 8e 25 10 ab a1 bf
       -0.5000651171472488 -0.03450823267402863
000010 65 2e 78 bf 9e 92 c4 bf 3c d8 53 46 18 bb da bf
       -0.16072449063391328 -0.4176693617622538
000020 3b 56 d2 ed 55 2e ca bf ce 4f 94 55 3f 4d f2 3f
       -0.2045390521276874 1.1438592284148288
000030 eb b2 22 83 1c 13 f8 bf fa 75 b1 ed 69 50 a3 bf
       -1.504665863273824 -0.03772288347748183
000040 43 f6 d4 66 a5 d5 f7 3f b6 0a 66 bf 3a 67 c9 3f
       1.4896596924658219 0.19846281381258785
000050 8d ea 5f fc 5c 75 fb 3f b0 f8 ac 82 14 91 a3 3f
       1.7161531313310292 0.038216248466129144
000060 c1 e8 15 7c 17 d6 d3 bf 8c ca ce f2 79 02 f5 bf
       -0.3099421226285238 -1.3131045803717454
000070 ba e0 d3 50 ba c9 ea bf a7 65 c6 d9 ec 9b a8 3f
       -0.8371249750771519 0.04806461485277263
000080 48 76 12 32 08 17 e8 3f 9c a0 52 3c 5f fa c3 bf
       0.7528115251513521 -0.1560782475037329
000090 e0 2d e7 d1 c7 51 dc bf 0f e9 4f 69 ab 25 bc bf
       -0.44249148844093433 -0.10994979210946475
0000a0 4e 0a c0 2e 59 02 e8 3f 16 31 9b 64 dc 6c 21 3f
       0.7502866662110337 0.00013294401497033402
0000b0 08 a8 33 0f 60 ad f5 3f 2b 57 ea a5 7a 7d f8 bf
       1.3548279374904286 -1.530634544474604
0000c0 01 35 ee cc 15 5f d8 3f 3f 82 cf 80 60 5d b4 3f
       0.38080353749030854 0.07954981941976146
0000d0 82 b5 2c 3d cb 36 f1 bf 1c ee ca 19 77 28 ef 3f
       -1.0758774175295405 0.9736896041644658
0000e0 8d 63 e5 d2 a7 a7 c2 bf 98 a4 cf 11 b5 38 e0 bf
       -0.14574144170435624 -0.5069222782014036
0000f0 c6 22 6f 85 f1 9f d0 3f e7 43 8d d6 fd 62 e4 3f
       0.2597621729915257 0.6370839300599273
000100 f7 eb 51 2b ab 37 cc 3f 21 62 ea f5 38 3b e8 bf
       0.2204488717578383 -0.757229309371784
000110 dc dc 51 d8 1e 05 d5 bf c0 27 f3 a9 22 0b c5 3f
       -0.32843752980211405 0.16440232561427415
000120 b9 f7 a0 04 8f 96 d9 3f 32 f0 10 a9 a3 68 cd 3f
       0.3998143716051988 0.22975583796676485
000130 69 3a 50 f0 26 67 8a 3f 84 e8 1f 7c 67 9f d9 bf
       0.012892059525282567 -0.4003542625574783
000140 e1 64 fd 94 2f 97 bb bf 64 0f c0 60 81 9a 96 3f
       -0.10777566325613776 0.02207376626030512
000150 bf b1 52 2a 83 df 9a 3f 51 a4 fb 95 d7 7c c8 3f
       0.02624325700587504 0.1913098795260191
000160 a1 fe 81 64 6e d7 cd bf f3 b7 3e 9e f9 bf a2 3f
       -0.2331369391213132 0.03662090355588523
000170 98 a7 3e 41 ad 25 a1 bf 60 5e 48 74 9d 27 bb bf
       -0.03349057599491728 -0.1060732277768408
000180 95 40 04 72 45 be d2 bf ad 7b 50 b5 60 78 9e bf
       -0.2928632367557012 -0.029756079737235975
000190 30 83 4e 63 18 cd eb 3f 76 94 c9 92 b7 41 92 3f
       0.8687860431274199 0.01782881577891656
0001a0 38 12 07 b6 79 d3 bb 3f 52 c1 9a 7e 16 65 bb 3f
       0.10869560903581366 0.10701122847490765
0001b0 6e fd 2f 25 b2 ab e1 3f 78 22 3d c3 86 18 d4 bf
       0.5522089697187036 -0.3139969736699082
0001c0 6b d1 cb 7a 76 40 e4 3f 7f e3 77 4e 8e 86 fe bf
       0.6328689955103476 -1.9078505578201825
0001d0 0b 92 b3 c6 20 52 c0 3f 16 dc d9 47 ed e5 ce bf
       0.1275063486310873 -0.24139181145048444
0001e0 10 f6 a3 58 85 e1 87 3f ee 72 17 38 fd 51 af 3f
       0.011660615699379512 0.061172402474516704
0001f0 f2 ed e6 15 9a 6c 89 bf bf 72 ea 1d a8 71 91 bf
       -0.012414172929189757 -0.017035128427425713
000200 f9 79 48 d7 3b ec b2 bf 53 84 3c 73 17 ab 7b bf
       -0.07391714101729709 -0.006754962541692572
000210 d7 77 52 35 27 ff b5 3f d4 43 7d 3d d1 8b c7 bf
       0.08592457820711218 -0.18395438673408526
000220 25 ab dc 3d 7f bb c6 bf 54 6b 97 40 19 ad b8 3f
       -0.1775969554958802 0.09639127566280808
000230 53 d7 08 a8 15 07 f5 bf 16 67 a5 27 9b 8a d1 bf
       -1.3142296375130698 -0.2740848433655726
000240 41 c3 b5 a8 f6 b2 d2 bf f7 42 21 5b 44 14 eb 3f
       -0.2921730659064004 0.8462240009194762
000250 13 d8 7f c1 2d 20 e0 3f 1d 90 2b 35 ca 6f e9 3f
       0.5039280680928208 0.7948962248306121
000260 62 f2 45 f1 52 d7 ef 3f c4 2c 8e 0b b2 3f ed 3f
       0.9950346672408836 0.9140253282252151
000270 e7 74 b5 64 a6 d9 ea bf a8 10 0f 21 17 12 f9 bf
       -0.8390686003655475 -1.5669165889130827
000280 44 2d f7 84 11 01 ee bf fe dc bd fa ab 57 eb 3f
       -0.9376304242117972 0.854452123384277
000290 83 07 4a 53 e8 e4 d0 bf 73 ae dd 9a 18 32 e2 bf
       -0.26397140630444244 -0.5686152481770946
0002a0 dd ed dd c9 64 a4 dd 3f 1f 17 7d 37 49 24 f0 3f
       0.4631587954861212 1.0088588874363678
0002b0 ec de 92 3e b7 74 c4 3f 65 a7 c8 fe 04 50 f1 bf
       0.15981188350064401 -1.0820360138408998
0002c0 d0 c1 f1 e5 e7 ee e8 3f 63 ac 58 3b a7 73 b0 3f
       0.7791633120632984 0.06426472853552094
0002d0 d1 c3 8a c7 26 f5 d0 bf a0 4f 38 1a e5 d5 ee 3f
       -0.264962859025272 0.9636102211102191
0002e0 60 ab 83 d5 bd 2a fa bf 7e 80 90 48 6d fb e6 bf
       -1.6354349460986768 -0.7181917588495847
0002f0 a2 df a5 b2 39 94 f2 3f c0 7d 95 ec 42 db c1 bf
       1.1611878374514863 -0.13950382759047208
000300 2b cc c1 a1 b8 6f 56 bf 9c 26 10 c4 bd 0b e1 3f
       -0.0013694098516026192 0.5326832608563623
000310 cc 81 79 d6 fe 96 d9 3f 6a e6 da c1 88 51 c7 3f
       0.3998410315016627 0.18217572656230924
000320 0a a0 6e 93 c3 f0 ed bf d0 31 aa 1c 12 e3 d1 3f
       -0.9356401328595905 0.2794842986993702
000330 68 74 7c 5b 99 b9 df bf 39 6a dd ec 06 11 f1 3f
       -0.49570306715197043 1.0666569950614202
000340 74 22 71 9b b3 55 c0 bf 83 0d c4 df 68 10 e3 bf
       -0.12761540498674473 -0.5957531328607931
000350 d8 43 f5 2b 35 e8 c0 bf 46 8d e5 2f 60 d9 cf 3f
       -0.132086416686916 0.24882128084855476
000360 82 8d 2a f2 af ca ae 3f b9 c1 1a e3 07 a4 d5 3f
       0.060140131293588986 0.33813664606261856
000370 ee 38 2e b4 7b bd aa 3f 7d 25 a4 f1 e6 21 e3 bf
       0.05222689222783737 -0.5978884429506902
000380 21 ca d8 98 d1 17 ec 3f 0a cb 08 0f 10 da e9 3f
       0.8779075608529788 0.8078689855231869
000390 c4 a0 94 4c 89 31 e8 bf 5a b6 59 19 8f c6 d3 3f
       -0.7560469146456161 0.3089940784037474
0003a0 8a 1e ec 67 6e 47 ef bf 1c f1 5e 76 64 55 eb 3f
       -0.9774696378453467 0.8541738807612407
0003b0 9a a0 67 57 3a 60 ef bf 71 c9 93 00 44 df 91 bf
       -0.980496569359292 -0.017453253302798403
0003c0 10 b2 2d 9b c6 4b ec bf ea 05 24 8d 35 ba f2 bf
       -0.8842499762373013 -1.1704612267789067
0003d0 19 d7 5b f5 12 51 e3 bf c8 da 37 fe 68 10 f2 3f
       -0.6036467353976348 1.1290063791654337
0003e0 e6 ec c8 49 43 4f d2 3f a3 61 b6 b2 32 f9 b9 3f
       0.28608782010606004 0.10145871031853075
0003f0 f5 de 15 38 a6 7f d7 3f 61 0c bb b8 b9 60 d4 bf
       0.367166094561511 -0.31840365448096547
000400 11 9c 3c 70 33 6d f6 3f ad 64 f1 f2 53 7c d3 bf
       1.4016603836296364 -0.30446337437531207
000410 f8 ed c8 bd 71 f3 ec bf 3d ff 24 b4 c3 6f cb 3f
       -0.9047173220382652 0.2143482808696663
000420 d9 55 38 fc 16 58 e3 bf 12 30 3c 52 77 44 d0 bf
       -0.6045031477139516 -0.25417883902332605
000430 e4 b1 f6 d4 39 41 c1 3f d7 20 8f 2f dc a4 87 3f
       0.13480303667655769 0.011544914437664406
000440 b7 be e9 5e 0f 1e e6 3f 7c 70 60 9a 97 1c e7 bf
       0.6911694387217356 -0.7222402587099306
000450 88 95 a7 54 a3 aa f3 3f 7a c5 81 af 59 80 d4 bf
       1.229159670526629 -0.3203338827070962
000460 65 dc 32 a9 24 69 f0 3f eb e9 ef 0e ce 22 e2 bf
       1.0256697282145748 -0.5667486469022242
000470 16 f9 38 35 1f f6 e8 3f 84 96 28 b0 ac 4d da bf
       0.7800441779616303 -0.4109908790872867
000480 84 0c 16 7b 7a 78 cf bf df c2 4a 26 79 f7 a6 bf
       -0.24586421022477023 -0.044856820988007355
000490 38 52 20 a8 48 3d f9 bf d3 a7 c4 8a 77 02 d8 3f
       -1.5774618689948863 0.37515057136135715
0004a0 30 a3 22 cd 14 7e cc 3f d9 3b bf 4f 3d 1d e8 3f
       0.22259769455311007 0.7535692746695261
0004b0 ef 17 53 b5 30 9f c3 bf e5 2d 1d 9e 93 00 e6 bf
       -0.15329560140361262 -0.6875703895724966
0004c0 80 5f f7 ce c6 1f b3 3f 7c 82 ab 47 84 e1 e5 bf
       0.0747036223687001 -0.6837788963130857
0004d0 a4 59 6f 12 f3 e3 d1 bf 6d d9 08 9b a0 88 ee 3f
       -0.27953793335236754 0.9541781452196979
0004e0 0d 98 bc 40 97 da 01 40 81 10 c1 54 57 b9 e8 bf
       2.231733804469519 -0.7726246505121851
0004f0 5f 7b 02 4d ea 60 f5 bf fe ab cd de 59 7c d3 3f
       -1.3361609466735087 0.3044647861303814
000500 1e 19 e7 e6 82 46 d9 bf 2b c7 6d ba f0 f7 cc bf
       -0.3949286703977054 -0.22631653883905165
000510 73 5a 48 57 2f a9 e6 3f 87 b8 0d da 85 29 e3 bf
       0.7081524567355032 -0.5988187083110156
000520 10 87 49 b3 d4 b8 d0 3f db 31 ac 2f 5d 73 f2 bf
       0.2612811804630022 -1.1531650411808332
000530 c5 51 c3 34 bf 4f c9 bf 45 53 39 56 1a f5 eb 3f
       -0.19774618221585008 0.8736697849331924
000540 47 9b 34 0d bb f9 b8 3f c2 ff fc 1f 64 de d4 3f
       0.09756058761977925 0.32607367633681517
000550 28 d4 df 72 51 82 9f 3f 4c e6 f5 92 82 31 d2 bf
       0.030770561825154058 -0.2842718539392066
000560 b7 3e b3 2b 88 2c b3 3f e1 f9 d7 46 1e df e8 3f
       0.07489825312517949 0.7772361167588394
000570 f2 66 34 5b 48 aa fe bf af 44 84 8b 47 43 e6 3f
       -1.9165729105647498 0.6957128262457867
000580 b4 90 b7 2d 64 83 df 3f 91 86 7c c6 8e a0 d9 3f
       0.4923944899039825 0.40042466529312387
000590 bc 47 eb 6a 53 fa e4 3f 9e 58 21 68 bf 30 b2 3f
       0.6555573547614055 0.0710563306068672
0005a0 f6 ba ba a6 25 4c 95 bf 19 f7 44 fb e5 43 b3 bf
       -0.020798290540080942 -0.07525479683405613
0005b0 d6 28 d6 d0 30 cd 8b bf 7e e3 01 f7 19 7f ad 3f
       -0.013574963925539068 0.05761033191897179
0005c0 ae 90 db 2e 78 49 b2 3f ad e2 8d 59 81 04 e3 3f
       0.0714335550688385 0.594299960051179
0005d0 18 cd 81 ef e5 f6 ab 3f 8f 58 5a 8a 7b 21 ae 3f
       0.05461805866880293 0.05884920181158392
0005e0 05 b3 8b da 47 d3 dd bf 46 6d ff ad d8 99 b9 bf
       -0.46602054922441055 -0.1000037598418447
0005f0 67 5a d5 56 85 7d c3 bf 5e 7e f6 b8 a9 09 c0 bf
       -0.15226809253609305 -0.12529489070310523
000600 72 57 74 70 6b 47 c9 3f 55 e0 8e 4c e3 10 cd bf
       0.19749205580654522 -0.22707787740887633
000610 5a a6 b7 ba 80 b6 d2 3f 87 11 01 42 f3 63 96 bf
       0.292389089909738 -0.02186565485341554
000620 bc ff 1d 2e 2a 22 c2 bf ee 96 0b a5 7a 9e aa bf
       -0.14166762592139814 -0.051990349433067226
000630 66 78 7b 10 86 07 b1 3f 93 c2 48 80 75 09 c4 3f
       0.06652105238342329 0.156538665426997
000640 d1 b0 d0 cd 54 21 ca 3f 10 47 41 25 fa 0d ee 3f
       0.20414218949861732 0.9392061927448783
000650 f5 6e ea ba 75 57 e1 bf 7c dd a5 d5 3d eb e0 bf
       -0.5419262552927352 -0.5287160084543951
000660 54 2b fd 59 2d f3 e7 3f 86 a0 8b 1f 65 bb dd 3f
       0.7484347112270862 0.4645626838741993
000670 a4 9f 53 3c 73 03 f0 bf ca 83 ca 79 8e f2 a3 bf
       -1.000842319155688 -0.03895993458468856
000680 f9 67 5b f3 d8 39 d6 3f 92 76 ad 4d e7 f2 ef bf
       0.3472807289632552 -0.998401309694332
000690 68 a6 2d f2 86 d3 a0 bf f6 73 c8 33 9e 9a ad 3f
       -0.03286382395056081 0.05782026655308663
0006a0 a9 e2 89 7f 2f e0 b5 3f d9 fc 01 c9 36 d0 b3 bf
       0.08545204986320222 -0.07739584357658504
0006b0 38 dc 80 77 4e 72 ad 3f 03 59 58 2e 32 28 8c bf
       0.057512714469730886 -0.013748542823162518
0006c0 69 41 3c 5b 95 e6 bb 3f 19 d3 cc d4 1d 07 c5 bf
       0.10898717381883717 -0.16427967920903866
0006d0 8c 16 45 c2 8b f0 d5 3f 30 3c 2c 24 ca 39 bf 3f
       0.34280675861041554 0.1219755495369419
0006e0 bb be cd 10 d3 a0 f1 3f c2 e9 73 ce e3 a0 b0 3f
       1.1017637878793909 0.06495498457289897
0006f0 ca ec d1 a0 c0 38 bb 3f b2 d7 c2 00 3f bd e1 3f
       0.1063347237231255 0.554351331221133
000700 ec 08 65 78 04 68 fb bf 1d 61 94 3e a8 04 ef 3f
       -1.712894888202352 0.9693185064561792
000710 d0 30 4d f3 db c0 da 3f 12 dc 6f 8b f5 46 e9 bf
       0.4180211902610269 -0.7899120067003216
000720 60 2b fb db 61 82 e4 bf 45 d3 b1 ff f5 d7 d8 bf
       -0.6409158035761315 -0.388181209279811
000730 96 92 f3 8b 7a 10 c0 bf 75 4e 19 ff a4 36 bb bf
       -0.1255028899533001 -0.1063025591659484
000740 67 12 30 b6 63 ee c1 bf f2 b1 ed 22 4d 2a cf 3f
       -0.14008757015121207 0.24347843366139404
000750 e7 37 a7 cd 5d 70 9e bf fc b1 8f b8 94 5d 60 3f
       -0.02972551887233257 0.0019977478700552425
000760 fe a0 c1 6c e5 c0 b1 bf 34 f2 8e b6 55 a7 c5 bf
       -0.06934961228546752 -0.16916915334685856
000770 a2 b5 3f 35 1a 92 be 3f d2 2e f5 65 f7 45 c9 3f
       0.11941684532185673 0.19744770506291914
000780 76 c4 57 f1 23 8a df 3f 07 ee 37 5b 19 c0 d4 3f
       0.49280642098080507 0.32422479541830324
000790 2d 3f 82 d5 5c d4 e4 bf 66 c7 a4 5a a9 b2 ce bf
       -0.6509231729596415 -0.239827317485431
0007a0 1e ec c6 c8 ac df f7 3f f0 5d 72 64 9e 93 e6 3f
       1.4921081393101825 0.70551986330514
0007b0 e4 b5 07 d6 08 d8 f3 bf f1 60 76 b1 b4 43 ca 3f
       -1.2402428017188578 0.20519121804387155
0007c0 1c 15 a1 3e a1 3e 85 3f 5b 1b 31 95 46 2a e8 bf
       0.010373363231460923 -0.7551606096175009
0007d0 43 49 ee 71 60 c8 ae 3f 89 32 58 c6 74 3e b2 3f
       0.060122503192490594 0.07126550524135146
0007e0 bd 2d 4c 29 40 bd fc 3f a0 a4 ea e5 d4 f2 df bf
       1.7962037671266977 -0.4991962666777656
0007f0 9b d3 94 f9 04 51 f2 bf d6 bb 47 d3 e0 14 d5 3f
       -1.1447801350852618 0.3293993056567478

bias_hidden f8 [1, 64]
000000 65 0f 15 72 51 15 cd 3f 74 68 9b 67 0f 5b b9 3f
       0.22721307821677353 0.0990457179972582
000010 12 83 e4 c0 56 58 e8 3f 6b ee fd af cb ae cd bf
       0.7607835547861177 -0.23189684003215247
000020 cc a2 7c ca ce ac 86 bf 55 67 1f ee 8f b6 b9 3f
       -0.011071792177589933 0.10044192851583252
000030 0c 87 d8 a3 89 34 89 bf 0d 39 ec 50 4d ba d2 3f
       -0.012307238876988723 0.29262097265827053
000040 20 ad 85 b4 9c ca bf bf 7b f7 75 93 47 df d6 bf
       -0.12418536574630368 -0.3573779048964451
000050 20 68 b6 b8 1f 0a 91 3f db 50 91 50 51 17 c3 3f
       0.016640182160337358 0.14914909776655957
000060 81 e1 2b ba f3 e8 cd 3f 6c cd da 37 a7 e3 c5 bf
       0.23367163267517913 -0.17100992419510008
000070 05 95 a0 43 33 36 d1 bf d0 e0 92 3b 9d 0a cc 3f
       -0.268933120767841 0.21907391938089527
000080 d0 2b 7b dc 7d cd cf bf 82 91 96 05 bb b3 d4 3f
       -0.24845860734634906 0.3234698824474195
000090 4d 73 61 5e 29 bd 91 3f 6e 18 2f e7 a8 c2 88 bf
       0.017323156724489853 -0.012090034060644874
0000a0 10 dc 74 c7 85 46 c6 bf 37 78 47 e1 a2 87 fb 3e
       -0.17402717818342284 2.6254490949166784e-05
0000b0 e1 2a 1d d4 51 9d dd 3f 8c 25 97 0e 3f 67 81 bf
       0.4627270289826538 -0.008497707970394307
0000c0 6c af e3 d9 9b 1c a4 bf 5f 7c b9 ea 39 50 ba 3f
       -0.03928076777250919 0.10278665524082119
0000d0 bc 9a 92 62 b3 25 cd 3f 1e 36 cb b6 f9 90 c1 3f
       0.22771303475493265 0.1372367994830918
0000e0 2c d5 2e c9 1e 82 84 bf ba d9 b9 53 8b 82 cc 3f
       -0.010013809694877716 0.22273389423544449
0000f0 14 19 34 95 34 bb c2 bf af 27 a6 c2 3f de d0 bf
       -0.1463380554707291 -0.2635650063390313
000100 7d 2b ae b4 4f 34 d5 bf 51 27 dc d6 33 9f ac 3f
       -0.3313178314644388 0.05590211866190365
000110 21 5f d0 53 a5 8f c0 3f 35 c5 79 e0 5c 73 9b 3f
       0.12938372223356345 0.026807261658580123
000120 ab 15 d7 7d 24 47 c3 bf 64 41 3d 84 cf 5c 6b bf
       -0.15060859818019642 -0.0033401539857679675
000130 fd 4e 02 e6 20 2e d1 bf 74 42 5a 91 17 56 98 bf
       -0.26844046079462186 -0.023765915152184694
000140 10 cd bb 3f 47 5f b3 bf 3c 0f a6 a4 3c df bc 3f
       -0.07567258172985114 0.11278132457487983
000150 ab 48 42 2e 82 fa c6 3f 6e 21 86 fd 91 ec ce bf
       0.17951991327988046 -0.24159455184077266
000160 6f a7 2f 0f a0 5c b2 bf 76 84 16 5b f0 7e b6 bf
       -0.07172584887271481 -0.08787443374468915
000170 0d a8 79 bf 47 e1 c0 3f 80 54 ab 85 8b fe cb bf
       0.13187500810028077 -0.21870559717959637
000180 e4 2c b4 47 e3 b0 d3 3f 86 7f 2f 82 22 0e d0 3f
       0.30767137529683297 0.2508627196639214
000190 14 d0 69 08 23 e2 90 3f b8 ee a2 56 e2 be d4 3f
       0.01648764361239337 0.32415064297286333
0001a0 8c 77 af 27 ea 8a 97 bf e1 cb 29 20 bc c5 c7 3f
       -0.022990854904370958 0.18572188921424895
0001b0 65 41 c7 ed d7 67 d6 3f b4 20 aa ab 09 47 dd 3f
       0.3500881025365941 0.4574608017360433
0001c0 60 0b 46 62 65 c6 9f bf f1 16 a7 b3 9f 4b d8 3f
       -0.03103025829615136 0.3796157125874365
0001d0 0d 0a 20 76 d2 2c 82 bf fd 39 e1 92 33 95 cc 3f
       -0.00887455389966354 0.22330326721062468
0001e0 54 8c 43 e2 54 94 d8 3f a4 98 00 d8 00 68 c5 3f
       0.38405344101028516 0.16723642870892264
0001f0 14 de e9 6c 1a d9 d9 3f 82 77 05 31 c4 dd b7 3f
       0.4038759292229497 0.09322763630686207

bias_output f8 [1, 10]
000000 00 00 00 00 00 00 00 00 00 00 00 00 00 00 00 00
       0.0 0.0
000010 00 00 00 00 00 00 00 00 00 00 00 00 00 00 00 00
       0.0 0.0
000020 00 00 00 00 00 00 00 00 00 00 00 00 00 00 00 00
       0.0 0.0
000030 00 00 00 00 00 00 00 00 00 00 00 00 00 00 00 00
       0.0 0.0
000040 00 00 00 00 00 00 00 00 00 00 00 00 00 00 00 00
       0.0 0.0
