trained_model.npz (npz, 408196 bytes, 4 tensors)

weights_input_hidden f8 [784, 64]
0	0x3f8dd9a8fc29f709	0.014575309939796737
1	0x3f8362338024fe6c	0.009464647625122079
2	0x3fb26869b83e0e9d	0.07190571544748044
3	0x3fa78fedbb595b11	0.046019963378674096
4	0xbf85c283e30273d6	-0.01062491451767215
5	0x3fa81f0f207c9e87	0.04711196204726514
6	0x3fa4fbb8a786e19e	0.04098298115735875
7	0x3f9c62133d53afb1	0.02771787702378931
8	0x3f84eeba975a459d	0.010220964187541532
9	0xbfa71bcafe8a81cd	-0.045133918353943515
10	0x3fa3bdbe83334560	0.03855700828138242
11	0x3f9954713cc9bd60	0.024736184439857367
12	0x3fa15e6178f4a2bb	0.03392319299229515
13	0x3f96168148b53df0	0.02157022482179899
14	0x3f753dec77421eeb	0.005186008162247661
15	0x3f80bb5630de345f	0.00816981636651287
16	0x3f8e6bb959005405	0.014853904751399591
17	0xbf7f1176abeb494f	-0.00758501392438611
18	0x3f96668c4aac6278	0.021875564630223526
19	0xbf9ca680281f5afa	-0.027978899430162386
20	0xbf5711000d95ef8c	-0.001407861759019166
21	0x3faa70ad3fb4050e	0.05164090540530185
22	0xbf86f7a76e84c346	-0.011214550075779105
23	0x3f865c28007766ce	0.010917961611017015
24	0x3f8a90518268f4fc	0.012970577995583536
25	0xbf91ad968901bb29	-0.017263748275975353
26	0xbfa166df0f7408f1	-0.03398797095907636
27	0xbf8361ee3c03646d	-0.009464131552180366
28	0xbfa071072a63db8f	-0.03211233513314148
29	0xbfa3439a34db1143	-0.03762514014445852
30	0xbf81964754b5bfe3	-0.008587415001528547
31	0x3fa09a68f8b6735a	0.03242805515330956
32	0xbfa04c124e541ea3	-0.03183037954482628
33	0xbf9b26394ae4466c	-0.026512999721552452
34	0x3f9df3662ffac160	0.02924880664676388
35	0x3fa43374e0561edb	0.039455082306685894
36	0xbfb1bdefd3bfa5c0	-0.06930445594448198
37	0xbf802e091f267790	-0.007900305998926688
38	0xbf84d2cbf19fc570	-0.010167687712938828
39	0xbfa406bdb6189fcf	-0.03911393020490516
40	0x3fb0ee8c9561ce60	0.06613997122786364
41	0xbf9a9a0d0d47b486	-0.02597828286700523
42	0x3f8a792cab02b68f	0.012926434487180031
43	0xbfa00afedd5715a4	-0.03133388950258656
44	0x3f5f471a23f9bcae	0.0019090419081313858
45	0x3f9bffd2df98d608	0.027343077561644363
46	0x3fa13d32f1156cea	0.03367003624836136
47	0xbf761fbfe4c51412	-0.005401372513294882
48	0xbf8418846184e78a	-0.009812387682007335
49	0xbf9fc3d46095d5c3	-0.031020468134973955
50	0xbf7788ca94ef43ce	-0.005745688757955626
51	0x3f9b839e6ec3d8ea	0.02686927367263873
52	0x3fa999a92bd810d8	0.05000046405987896
53	0xbf9cf88cc7f0a7e0	-0.028291892722485446
54	0xbf85de880e5a4e65	-0.010678351343165813
55	0xbf9f7a46c2852523	-0.03073988497024972
56	0xbf9dcfd9e3cff81e	-0.02911320164638919
57	0xbfaa49649848bdd8	-0.05134119376122798
58	0xbf9e3730ded4e47a	-0.02950741157585355
59	0xbfa84d0c4d283a22	-0.04746282998904784
60	0x3fa2147a61afb2d0	0.03531248514614094
61	0xbf9768ae86c51078	-0.022860266662306533
62	0x3f86d1c367f74c47	0.011142279253283273
63	0xbfa2a8274ac1156a	-0.03643915927436121
64	0x3fb53247c8a35544	0.08279846809758334
65	0xbf90daa5ec4a2769	-0.016459076449371866
66	0x3f953b79eb0c9ac6	0.020734696360842596
67	0x3f8cf6867010c1ef	0.014142084403005987
68	0x3f90d019106bb5fd	0.016418830516093042
69	0xbf8f9fdf587f6a6e	-0.015441651237712874
70	0x3fb73d18b83c0999	0.09077600953972932
71	0x3fa702ad931a012d	0.0449423067157134
72	0x3f9d6b15032eab3d	0.028728798217041208
73	0xbfae270f8f1b2999	-0.05889176008129766
74	0x3f98e42d74271279	0.02430792828978887
75	0x3f97c18ccf53893d	0.02319927230281248
76	0x3fb49d06db4f9984	0.08052103857298759
77	0x3f9cb968a19c905a	0.028051028121936696
78	0xbf78a684ae6f1b5a	-0.006018179213191777
79	0xbf9de944fc23b277	-0.029210164918298944
80	0xbf9f7dc6e739eb36	-0.030753238547258387
81	0x3f9f5be5f3b9accf	0.030624001503764483
82	0x3fa286b79bc48043	0.03618406082591765
83	0xbfb272d51e51d0cd	-0.07206470480179235
84	0x3fa06118fcbb7725	0.03199079594717905
85	0xbf96cacdaf4325cb	-0.022258008787309252
86	0x3f9065f6fb89e320	0.016013964750956622
87	0x3f818740af75786b	0.008558755259113057
88	0xbfa16cbb31fce253	-0.034032678463010634
89	0x3fab11a89118eef3	0.05286909838875244
90	0xbf8603ab438a3d32	-0.010749185560853112
91	0xbf9341a861bb2c8f	-0.018805151906047753
92	0x3f91a1c350203086	0.017218639150130353
93	0xbf9d02aea972dd10	-0.028330544559790616
94	0xbf975f5725f2417c	-0.022824632350024285
95	0x3fb21408fddc231e	0.07061821172477464
96	0x3f9552f185a3a883	0.020824216634459446
97	0x3f8b7e1a52163306	0.013424115781867762
98	0x3f740e5d75d0ac3c	0.004896512106863201
99	0x3f6087a8342a4080	0.0020178113202931613
100	0xbf8e0b52eed5d12d	-0.014670036233589723
101	0xbf6a92f28f12d478	-0.0032438981512208885
102	0xbf87979d25dd1f78	-0.011519649236688898
103	0x3fa2405a6208a711	0.03564722487165118
104	0xbfa906fddc65023e	-0.048881467012055854
105	0x3f6f41266443c8f8	0.003815245612821202
106	0x3fa656df4d6fd3f1	0.043631532862413176
107	0x3f7dcb4c0f61d6f4	0.007273957357133421
108	0x3f73cfbaea7e5351	0.004836778774820542
109	0x3f95004c3e6b595a	0.020508948621534052
110	0x3f976c598fc65e4d	0.022874259376833007
111	0xbf9ad22fb0a048a5	-0.02619242206134999
112	0xbf62f790d324aea9	-0.0023153141602472904
113	0xbf34132624285470	-0.0003063171499502809
114	0xbf62090722b8bfd0	-0.0022015704505733216
115	0x3f8f25fe665bd204	0.015209186075915156
116	0xbfa740712be75cb2	-0.045413529023499946
117	0x3fbebdec7ed17dd0	0.12008550735617196
118	0xbf3f1d8e7d1e5f19	-0.00047478417138212405
119	0xbf7c291617e9fe10	-0.0068751204513542025
120	0xbfb345a6e2fb0158	-0.07528155366435862
121	0xbf9ed341549a8b32	-0.030102749623107168
122	0xbf96457c8d127fcf	-0.021749445066802594
123	0xbfa6b8ebdcbc2972	-0.044379587836448034
124	0xbf9c10e5fa36aced	-0.027408212086510387
125	0x3faca02c5b3a8659	0.05590952504759334
126	0x3fa6a1933b18c90e	0.04420147034069731
127	0xbf99d8216a085bef	-0.025238535019607097
128	0xbfa0f0059be979e6	-0.03308122184965949
129	0xbfa83b3457a0e121	-0.047326694199400395
130	0xbf9d5994267d5e29	-0.02866202816889377
131	0x3f9f614e0db6dd4b	0.030644626223616894
132	0x3fa6503b0148249b	0.04358086004874303
133	0x3f7ff61007dbc3ae	0.007803022975836278
134	0x3f7f33ef0ccbccc1	0.007617887295725712
135	0xbfa840eb218e20d1	-0.047370288702099146
136	0xbf956d200fb04b07	-0.020924092252310646
137	0x3fa605c35d91e866	0.04301271931849797
138	0xbf9ec5fb395fe95f	-0.030052113892432227
139	0x3f9529f952557a2e	0.020667930269491368
140	0xbfa1e8afb487b82f	-0.034978380954143844
141	0xbecbe32b88f6d66e	-3.3244351198235438e-06
142	0xbfa99afbaeb2112f	-0.05001055247797336
143	0x3f76a89e7111a621	0.005531901276393054
144	0x3fa57331f9240094	0.041894494688677814
145	0xbf9733aebe19b9b7	-0.022658090927899468
146	0x3fb34127eb288b48	0.07521295062228461
147	0x3fb06897d07bfd3d	0.0640959629054025
148	0xbf843d6999e0ac45	-0.009882760055992654
149	0x3f39c77ff93fce2d	0.00039336084705540974
150	0x3f85cfea4224b1ef	0.010650472777876422
151	0xbf7b078795f3c7a3	-0.006598977691497784
152	0xbfa862608506d18f	-0.04762555717335026
153	0xbf9cdb7da0036b44	-0.028181040660324244
154	0x3fafe31cb4ae5089	0.06227960305764763
155	0xbf8eb56bde9e24a7	-0.014994471293692092
156	0xbf8c104f9f757c6b	-0.013702985814857812
157	0x3f8c59d39b1b8c07	0.013843205615051713
158	0x3f7c48bf12ea1ab3	0.006905313856470019
159	0x3f9e3bee16a3d3d4	0.0295254899328546
160	0xbf9045b6b0e8910c	-0.015890936420093246
161	0x3fb6b37bea47cfdb	0.08867620916117806
162	0xbfa22e8431111081	-0.03551114176710347
163	0x3f9f33a93778fe85	0.030470508585720885
164	0xbf8d33e4fd1a2a3e	-0.014259137128893259
165	0x3fa20b6c30b2ba61	0.03524339765987317
166	0x3f6cd4cf30c933c5	0.00351944415004943
167	0xbf73b69adf832079	-0.004812817547822695
168	0x3f83c20ca6b2a968	0.009647463643280133
169	0x3f89640cc82f1dd3	0.01239786134637103
170	0x3f9b123e6ccad12b	0.026436782255317908
171	0x3fadfbb3296c0708	0.058560942465204546
172	0xbf710ac76bc3492a	-0.004160670269089098
173	0x3f2ab2efa71c94f7	0.00020369697045300564
174	0x3f7313f916e62130	0.004657719617519526
175	0x3fa7b81172b8ff21	0.04632620358870399
176	0x3fa33f938914405a	0.03759442375496809
177	0x3fab26510838a893	0.05302670693738878
178	0x3fb141b227b1205a	0.06740869015732312
179	0xbf90848cbe3a2e18	-0.016130637274313825
180	0xbfa5a8d643fd7d37	-0.042303748893341035
181	0xbf9460fc5851557b	-0.0199012211708882
182	0xbf9ce1e4e2df1b6c	-0.028205467555177874
183	0xbf7f6e289e50d980	-0.007673414865215
184	0xbfa2cfd5322d9fd3	-0.036741888404150956
185	0x3f95350d9413e0ea	0.020710193789427324
186	0x3fa70e8caf7ff866	0.045032879279447255
187	0xbfb54df1d429f55a	-0.08322059087546077
188	0x3fa9a9d1404ce331	0.05012372884670525
189	0x3f78ee85b753a8f2	0.006086847618670387
190	0xbfae5a6a95055693	-0.05928357190229607
191	0x3fae7c495566ad61	0.05954198043340387
192	0xbf7e34133e61f416	-0.0073738815027555495
193	0x3fa6cbf9411ba9e8	0.0445249454476942
194	0x3f891f6d81f33cd2	0.012266974952949292
195	0xbf5e09230df8a9ca	-0.0018332331018294673
196	0xbfa3a2fc685bdb24	-0.03835285924826895
197	0x3f977273ca3f014b	0.022897538394091737
198	0x3fa282dda3bd52d7	0.03615467666410204
199	0xbf99ed398d63ed20	-0.025319003348141966
200	0x3f98264b34c74382	0.023583579155288976
201	0xbfaa986ca349b1f9	-0.05194415562877803
202	0xbf8097f4a1954725	-0.008102332287907974
203	0xbf729c6d2aed7a11	-0.004543711124681341
204	0x3fb321eecc909124	0.07473652357345323
205	0x3f786cd382ec4247	0.0059631597676035935
206	0xbfb41e39437d7686	-0.07858617685038824
207	0x3f97400f2224bbee	0.022705303629830746
208	0x3f86eef37669222c	0.011197950411898715
209	0xbfb66f591a947892	-0.08763653658795281
210	0x3fb9894c6679fe71	0.0997512579142439
211	0xbf8d631d64eee2d8	-0.014349202769027
212	0xbf82e392fd30f450	-0.009223125793250159
213	0xbf83761c79f8f75a	-0.009502623054796256
214	0x3fac5cd8fe09c4a4	0.055395871172444516
215	0xbf8e7e8f90a8594d	-0.014889833070850367
216	0xbfad82eb9768fa9d	-0.05763946746127611
217	0x3f9c2c09ed06ee1e	0.027511744586929614
218	0x3f6a364507dc1f08	0.0031997059112461902
219	0x3fb218d704bc4eff	0.07069152703871494
220	0xbf94b9fa0cb29b41	-0.020240695023541425
221	0x3f85198b1668a114	0.01030262624870252
222	0x3fab24dd41f266ec	0.053015627193600284
223	0x3f5d8c48c731f31d	0.001803465912217201
224	0x3f6782d9cee16b1d	0.0028700117173178345
225	0x3f98d9e9a60a32e6	0.024268770941989447
226	0x3f8654efdf11c3e9	0.010904191966092784
227	0x3f9a01124d121ac4	0.025394712404273503
228	0xbfa48bc8df0737cd	-0.04012897226822041
229	0x3fa12cb4c38e55ed	0.0335442055431193
230	0xbfb1630c24e243f3	-0.06791759396061518
231	0xbf90ff443486f393	-0.016598764139178334
232	0x3f91758c14ee390f	0.017049969460964095
233	0x3f8a5ad374d63a92	0.012868549349858403
234	0xbfb14ac622dab4ff	-0.06754721022544528
235	0xbf812df9be39a8a1	-0.00838847266932802
236	0x3fa46e5978aeefcc	0.03990439985452063
237	0x3f7be04134c4f309	0.006805662833639267
238	0xbf6d531a82251564	-0.0035796659223332073
239	0xbfb0d36753dee0c4	-0.06572576329824914
240	0x3f317d3a122e4022	0.00026686351537197524
241	0xbf9c536ccb463d3b	-0.027661991030581517
242	0xbf32f3a53f7d540b	-0.00028918060660504456
243	0x3f79d561de08c0fc	0.006307012838576261
244	0xbfa2f735b48d9ecc	-0.03704231099146468
245	0xbfa43c42c17d2134	-0.0395222531502121
246	0xbfa40558b16cf3e6	-0.039103290232084295
247	0x3f842d90404dbab0	0.009852530443564461
248	0x3faecdf4511bef75	0.060165057087913455
249	0xbf54c5520c85e883	-0.0012677479990928226
250	0xbf865a9665b5a3ee	-0.010914969424179657
251	0xbfa82c7c82daf358	-0.0472144040809101
252	0x3f9b2d109c4131dc	0.026539096390750902
253	0x3f9d4dd1f9570e2b	0.0286171730456443
254	0xbfa9fd1d26e845d8	-0.050759230613163175
255	0x3f90eeb7744101e1	0.016535631628586848

weights_hidden_output f8 [64, 10]
0	0x3fc3eb9f65ddad06	0.15562813257142966
1	0x3fc0e4435ccd6b3f	0.1319660380493932
2	0x3f9c0b2fee11a1e3	0.02738642588193042
3	0xbfb8425791bf3a77	-0.09476229961658499
4	0x3fb1499e42901d28	0.06752957463333031
5	0xbfb3b7ae30bc25d3	-0.0770214909536187
6	0xbfc09c8be1f10b04	-0.12977741749099192
7	0xbfc542c8ee71d419	-0.16610061304859938
8	0xbfc1394d70471c66	-0.13456123335183462
9	0xbf6921aa9e332f9d	-0.0030678112394521687
10	0xbfd30ffbcbae1e82	-0.297850560099029
11	0xbfcdcdf674a416b6	-0.23284798331603945
12	0xbfc7342839693693	-0.18127920916815707
13	0xbff70fe6119f5024	-1.4413815201160185
14	0xbfa2b6634f3755d1	-0.03654775945657785
15	0x3fc236b9c12df96e	0.14229509289357217
16	0x3fd6353cf75847dc	0.34699939875383534
17	0xbfd9361af2e1b626	-0.3939273235217534
18	0x3fd08271bf9f786a	0.25796169007470005
19	0x3ff313e7cc2492a0	1.1923597311335143
20	0xbfe3136d43540624	-0.5961214365963241
21	0x3fd949befa87beb7	0.3951260992607603
22	0x3fd481f44daa1605	0.32043178162015834
23	0x3ff5897e87bc0cc5	1.3460679342395434
24	0xbfc74fccfe1f0740	-0.18212282570135052
25	0x3fb01d044f965614	0.06294276183174247
26	0xbff2c568c8f24594	-1.1731956338374845
27	0x3fdbef0a765c6f5a	0.43646489676188127
28	0x3fbd07cddcee6136	0.11340033191516316
29	0xbfdd84ef0ea334b9	-0.4612386362976611
30	0xbff20eb0bed33343	-1.1285865263082122
31	0xbfe961e9a01d03cf	-0.7932022216046962
32	0x3feb458b29a70f99	0.8522392095114696
33	0x3feb4cced215d3f7	0.8531259635188907
34	0xbfecba4bbe084572	-0.897741194874625
35	0xbfd8d08c91774bed	-0.387728826576846
36	0xbfcd44b92da9c255	-0.22865977029461484
37	0x3feb724743bf8bf9	0.8576999972541436
38	0x3fa5a4db8e9c0a5f	0.042273389013662614
39	0x3fd7b63a309b4d50	0.37049727198355686
40	0x3feda0fa605495c8	0.9259006387189226
41	0xbfc9c47d607d3571	-0.20130889140493083
42	0x3ff15228833a97e9	1.0825581670883315
43	0xbfeee423fcfda4e3	-0.9653491917826184
44	0x3fdd28df78dcba50	0.4556196861548516
45	0x3fe771bb32812813	0.732633207933079
46	0xbff7b3c176b72efc	-1.4813856732679929
47	0xbfce3e436ec01b71	-0.23627512843833245
48	0x3fd7d65cc5474a27	0.3724586416766748
49	0xbfe15483149f03db	-0.5415664103276144
50	0x3fd106655cf51a14	0.2660153777873415
51	0xbfd3c827c540649f	-0.3090915132793927
52	0x3fc6065745a17883	0.17206850910128332
53	0xbfc96992f7989643	-0.19853436555529144
54	0xbfcc1080983bf813	-0.21925361092866122
55	0xbfe6aeb8308034d5	-0.7088280627519007
56	0x3fe113572f84dcba	0.5336109092812855
57	0xbfc5143c9065f208	-0.16468007136053608
58	0x3ff3a4580f067e58	1.2276230418136915
59	0xbfb857bc1c3e887c	-0.09508872689778686
60	0xbfe352db80a98cbb	-0.6038644326148622
61	0x3fec2dc48da333e4	0.8805868879659298
62	0xbfd48b52f26e1c06	-0.3210036628228753
63	0x3f658d2211c54aae	0.002630774061040362
64	0x3fe2fd7d0268bfd8	0.5934433981947178
65	0xbfc15f2483f572db	-0.13571602290439597
66	0x3fcda50dc1b87243	0.23159954031952354
67	0x3fbc24348d71ab89	0.10992744878028139
68	0xbfc2dea5d76e7c98	-0.14741967219467678
69	0xbfc1d7088954076e	-0.13937479691963567
70	0x3fd6d230045e9742	0.3565788309737067
71	0x3fddc2847476f049	0.4649974000310562
72	0x3fe0c120c87164e4	0.523575202455643
73	0x3ff0cf8d166259ef	1.0506716608411997
74	0x3fccecaa496cd751	0.22597244820797838
75	0xc002113bb4090fe8	-2.258414656187586
76	0x3fef9605ce63b914	0.9870633154912718
77	0x3fba90c07d6085ee	0.10377123890841464
78	0x3fc7f371852a4952	0.18711680414396398
79	0xbfecec704468c6bb	-0.9038621269339367
80	0x3fe5f56a419afd8f	0.6862078935009083
81	0x3fc0a3551ad68514	0.1299845105213896
82	0x3ff2547508af534c	1.145619424748662
83	0xbfc387ac1a85eec3	-0.1525778893954933
84	0xbfbcf9557299eab6	-0.11317953155404833
85	0xbfd8012aec65ae1a	-0.37507126889860987
86	0xbfe6b3b024b40bdc	-0.7094345776425786
87	0xbfb44dc7921986ae	-0.07931182209861262
88	0xbfed8bd4ed87b73b	-0.9233193053494014
89	0x3fda3e9a1cf08e4e	0.4100709231008509
90	0xbfd91d429e8741e4	-0.392410902798501
91	0x3ff1f46b58e5e043	1.1221726868225381
92	0xbff835121bb22ebc	-1.5129567224384308
93	0x3fa49127357f9f91	0.04016993072565279
94	0x3ff068178b01eb6a	1.0254130773525625
95	0xbfe39d4b645eb4c8	-0.6129509888029583
96	0x3fa2a7acd04c496a	0.03643550913524758
97	0x3fe2b888a7d28274	0.5850260999469143
98	0xbfe7b2be8be26b57	-0.7405693752401515
99	0x3fbc9b2e2cf80b39	0.11174286458849005
100	0xbfdae7bfd9366715	-0.42039486133727283
101	0x3fcdd6aa3ba701e0	0.23311355507577414
102	0xbfa159ca780f2090	-0.03388817515912124
103	0xbfd618c82489f366	-0.345262561495295
104	0x3fef1fcf7b05089c	0.9726331141212259
105	0xbfde1daf264a3114	-0.4705617784427585
106	0x3fdb1ee101a77ba1	0.42375970040841976
107	0xbfeb0566ffe77905	-0.8444094656113356
108	0x3fe28d4cbe81fab2	0.5797485085348255
109	0xbfc5fa68646b33f9	-0.17170433905849317
110	0x3f8e91181dd18827	0.014925182733524235
111	0xbfb9d0b799d4c6ee	-0.10084102159160199
112	0x3fa4922a6b1827de	0.04017765576652697
113	0x3fc4bf6bc43bf4d8	0.16209170419452934
114	0x3fc23e4a52430f40	0.14252594963738296
115	0xbfc235f6b1280575	-0.1422718396207007
116	0xbfbcafb99fa1b763	-0.11205635211237346
117	0x3f6242e2c249b5b1	0.002229159248875866
118	0xbfc881f70c19c1d7	-0.19146621790743154
119	0xbfb7ae52ad3c2efc	-0.09250370721218454
120	0xbfda59ad6e1febe6	-0.41172347788204744
121	0x3fe154e02f4c69c6	0.5416108058737386
122	0xbfdfa6cb016d0d8e	-0.4945552362371125
123	0x3ff382bbe9b66869	1.2194174889941911
124	0xbfdeed6e0ae2f02b	-0.4832415682137731
125	0x3ff449759bdfb513	1.2679344261953858
126	0xbfdfbad4815fad73	-0.4957782042899545
127	0xbff3c3a116e2f93b	-1.235261048699228
128	0x3fe8214139ffa1fa	0.7540594227585296
129	0xbfb047b7e60c5df3	-0.06359433523572715
130	0xbfed571e48386725	-0.916884556823082
131	0xbfc617da26a7026d	-0.17260290992091445
132	0xbffbd522b970d708	-1.7395350688725006
133	0x3fcb0f2f6400ea29	0.21140091307627643
134	0x3fea481e29defbbb	0.8213034456056144
135	0x3fce67edcc3c5b6c	0.2375466582531901
136	0x3ff9e93a2b12c871	1.6194402391961626
137	0x3fdcf50cffda4687	0.4524567125855374
138	0x3fb1938e933b5ece	0.06865779013184722
139	0xbfe9777838aba37e	-0.7958336932034482
140	0xbf900e7166ca6c78	-0.01568009557614089
141	0x3faf16e2f05f5447	0.06072148498757506
142	0xbf94b8de17a5f3c9	-0.020236463731169416
143	0xbfb89f4ef2a8fe31	-0.09618085312194392
144	0xbf5036172407c498	-0.0009894586547683267
145	0x3fe01f2a870be08c	0.5038044583916572
146	0xbfbed3433784afd0	-0.12041111092975076
147	0xbfc3fc22a24deaa1	-0.1561320583822026
148	0xbf973b2f0801d29d	-0.02268670545932371
149	0x3fd4afb7bedc8b13	0.32322496069734646
150	0xbfc7894de6b05533	-0.183877694741264
151	0xbfcb82cf6ee13ffe	-0.21492951311165592
152	0x3f9ad88dc4bea8b2	0.0262167121251557
153	0xbfa59064b91cdd20	-0.04211725959469903
154	0xbfb54875ec582952	-0.08313691158415296
155	0x3ff58f8be2d19a26	1.3475455150707005
156	0x3fa6bcd5e04d5215	0.04440945017873702
157	0x3fc8ab49b17a8823	0.19272729078244408
158	0xbfd0b7125e661f0d	-0.26117381304401094
159	0xbfe465a3e450b3ce	-0.6374072512895681
160	0x3fd9b3d47c7c35ff	0.4016009536433955
161	0xbfe02b79189f2da0	-0.5053067665953002
162	0xbfaf636c7029368e	-0.061305416766669216
163	0xbf9f5483ef8c1f1f	-0.030595838065919808
164	0xbfe8a9b75c1e6cfb	-0.770717315597181
165	0x3fe0563db9b06335	0.5105274798143912
166	0x3ffe768614cc8aeb	1.9039364635906917
167	0x3fa415a9049aeaea	0.03922775441374944
168	0xbfef44015fc09b7d	-0.9770514364398505
169	0xbfeba47de393a042	-0.8638295597893448
170	0x3f9ab29a01dd4d27	0.02607193600063087
171	0x3fe095cd2b923aee	0.5182863093376378
172	0x3fd6bca030113170	0.355262801113688
173	0xbfda52937eeaccbd	-0.4112900485444689
174	0x3fe7494422988182	0.7276936221788193
175	0xbfdb2ab94c59a950	-0.42448265510633565
176	0xbfebbaf452501427	-0.8665715797111532
177	0x3fe263cfed2c3fdc	0.5746841079981055
178	0xbfcd6fb4f1828991	-0.22997152130581047
179	0xbfc4d53d9d3ef828	-0.1627575891306503
180	0x3fd129d36d7bb402	0.2681778496906305
181	0xbfd49a74d4fabdec	-0.32192726897025525
182	0x3fed635fa35e2b95	0.9183805647638673
183	0x3fcdfd5b264cafc1	0.23429431314559504
184	0x3fcb791255cb911f	0.21463231267183233
185	0x3febb056414f5b0e	0.8652755046449288
186	0x3fbfc62d0f86a91c	0.12411767605832263
187	0xbfec94d425f64fa8	-0.8931675664375591
188	0xbfc84fa24a4badb6	-0.18993023517337598
189	0xbfec5058254c28e7	-0.8848076561419277
190	0x3fd9b27270e8f85e	0.40151654268618653
191	0x3fdac19927a8b023	0.41806630013411644
192	0x3fd9fa847da52ec0	0.4059153773311941
193	0x3fd8aeeee1e5a4e7	0.385677071192346
194	0xbfd3b0165af8ae1b	-0.3076225174324649
195	0x3fd9c0df992249ef	0.4023970599602355
196	0x3fd937283b6a91d2	0.39399152567264395
197	0xbfe8238d1d41ca71	-0.7543397494722069
198	0xbfe6f1b60a700537	-0.7170057491167999
199	0xbfde007211f0eaa2	-0.4687771964269506
200	0xbfe7487965a0f2c9	-0.7275969490943562
201	0xbfe283c56657bfc0	-0.5785853384859294
202	0xbfb1319152ea7e77	-0.06716259264293876
203	0xbfd94ca4f722f868	-0.39530300268586993
204	0x3feef3a1e3bc6652	0.9672402809112077
205	0x3fe3ae204242a503	0.6150056165835455
206	0x3fe85de8b8b5daba	0.7614635093330755
207	0xbff37169bbbfd12e	-1.2151887258488148
208	0x3fe0f4ce7225730e	0.5298835973186173
209	0x3fc068137161451d	0.12817614589815998
210	0x3fc0f0e826f7510b	0.13235189345017093
211	0x3fe471615884e746	0.6388403633966184
212	0xbfea0c2ea50e3d15	-0.8139870856993264
213	0xbfe0c03d168c7b4d	-0.5234666290669822
214	0x3fe59be8e422fdc8	0.6752819495958926
215	0x3fd840fef4e38eaa	0.37896703638964857
216	0xbfe69a8424757bb7	-0.7063618385399114
217	0xbff1d876d79d05af	-1.1153477117917239
218	0x3ff599ac596c71b9	1.3500178807363297
219	0x3fccb02b9ea0d6a4	0.2241262936164975
220	0xbfb0a4758b39b8f2	-0.06500944756564644
221	0xbfd4edc19d4e000f	-0.327011493318424
222	0x3f925276bd2872e5	0.01789269952324703
223	0x3fd7e175ff59aa85	0.37313604294346475
224	0xbff224fd33ec477d	-1.1340305355301716
225	0x3ff28cab2f5de0ff	1.1593429422628672
226	0x3ff21ca8131b9502	1.1319962259670437
227	0xbfde31262280fe66	-0.4717498146964999
228	0xbfd90215c2d23716	-0.390752258543999
229	0xbfd9c79d8836c4c2	-0.40280855466978605
230	0x3fe133c7683320e5	0.5375706706190867
231	0xbfeff69a0fc0324c	-0.9988527591354539
232	0x3fd7d25428d60f25	0.3722124480047902
233	0x3fd892810ea649de	0.38394190245267434
234	0xbfa1c53d36981ba8	-0.03470794001992
235	0xbfed1846168a5d08	-0.9092131080859938
236	0x3fefe2c41957706a	0.9964313979103399
237	0x3fb69e4c8ac85770	0.08835295093771633
238	0x3fc08130d276c890	0.1289425876289596
239	0xbfdc6a7bbb9732ee	-0.4439992267551095
240	0x4000ccfcd0f82588	2.1000915837982497
241	0xbfd963cc0ab4c968	-0.3967161278298108
242	0xbfd2d73fb3b9e108	-0.2943877463471982
243	0xbfd0e570ad426345	-0.2640039150224321
244	0xbfec117efd839fbf	-0.877135749001347
245	0x3fcf5697bdc9ee4d	0.24483010069876557
246	0x3fcca6ba87e2f580	0.22383815417371622
247	0xbfb8fcfa5bc213cd	-0.09761013736904474
248	0xbf8f849c1aa49eaf	-0.015389651835519073
249	0x3f9a7dfd3b6bb5d2	0.025871235610727635
250	0xbfc27190a8ff75d4	-0.1440907311615961
251	0x3f867c6748e3c22b	0.010979468261639166
252	0xbff147012fb00838	-1.0798351156995647
253	0xbfda2ec5d8a3b1de	-0.4091047874087773
254	0xbf9ae3e0d742fa91	-0.026259911669280604
255	0x3fd67d91aefb54c9	0.35141412818968526

bias_hidden f8 [1, 64]
0	0x3f7ab312e022c537	0.006518434269467569
1	0xbfd6c37b9d5e9f44	-0.355681327515857
2	0x3fba8dd76d56dc65	0.10372682971397891
3	0x3fcc6813d8f9d35f	0.22192619413876977
4	0x3fb3c80bbc85b861	0.07727120735737138
5	0xbfc4572e1ae47f59	-0.15891052544702225
6	0xbfc3d4c017cafa89	-0.15493012582551938
7	0x3fc8565ce00b14f4	0.1901355833016748
8	0xbfc94fe46db54b75	-0.19775061947674613
9	0xbfc17dcfdf06c625	-0.13665197744335092
10	0xbfcc7177d129b12a	-0.22221276963262798
11	0xbf8028f42e738f2d	-0.00789061323889192
12	0x3fbc89e5a49df2df	0.11147914189309514
13	0x3fce8a03b314f645	0.23858686680061872
14	0xbf8209afb31d9434	-0.00880753770224816
15	0x3fc8c100122b618d	0.19338990103893786
16	0xbfc66a13c37bc062	-0.17511221928680515
17	0xbf9be254c87776a8	-0.02723057244826657
18	0x3fd30a9e1567b1bd	0.29752304163300974
19	0x3fc08d58015a8ee7	0.12931346956349118
20	0x3fa52c0b45331d6d	0.041351654240822856
21	0xbfe3af76adce0bb1	-0.6151688952089583
22	0x3fc84c35c3240f8d	0.18982574489939133
23	0x3fb1bf3aae5e0e6a	0.06932417637841018
24	0x3fd22d689a1658d9	0.2840215210684512
25	0xbfcca19044f74a20	-0.22368052833060492
26	0x3fddfc72d79534d9	0.468533239870181
27	0x3fac7623cb627058	0.0555888353130462
28	0x3fca8427e7858971	0.20715807728545202
29	0x3fc0bebd5bea99de	0.13082091320138906
30	0x3fe1a9bb2b38dae1	0.5519691318684999
31	0x3faf04e3cf7386d3	0.060584181855814066
32	0x3fda78c09fb9b053	0.41362014387300866
33	0xbfd11512d0375613	-0.26691122373208137
34	0x3faa55a1e4b5bb36	0.05143457333439587
35	0xbfb3183bdad5c29d	-0.07458852856303584
36	0x3fae195d6071a448	0.058787267706812474
37	0x3fcd04774bcb11a3	0.22669879151193326
38	0xbfcbf3e363b26f03	-0.21838037841813937
39	0x3fb9e7fac84fcf44	0.10119597807334652
40	0x3fcf0bbc01e68f38	0.24254560559085703
41	0x3fce8c469ab5be7a	0.2386558776301973
42	0xbfb7c526b3a707a0	-0.09285203825041188
43	0xbf925af64f2b7216	-0.017925118047843545
44	0x3fd6bd65bdf49e78	0.35530990171762467
45	0x3f89aed3ba7ea189	0.012540487412324068
46	0xbfc52bae767a9c19	-0.16539555344681459
47	0x3fbd7023a5208a18	0.11499235898421778
48	0x3fbbeac5c8fb657e	0.10905109555041823
49	0x3f9456c20a620655	0.01986220539448021
50	0x3fd5d33c30d83f37	0.34101776857368143
51	0x3fb054945b25e50c	0.06379058099073037
52	0x3fd637a2ad8f0031	0.34714571904260355
53	0xbfc079b73ea461fb	-0.12871447142312306
54	0xbf95e7dc5a0acd6d	-0.021392291064967695
55	0xbfa4ba4c634d29ac	-0.040483843919520396
56	0xbfb724e926fc6d02	-0.09040696336562706
57	0x3fd1c71790261d39	0.27777661397017855
58	0x3fd30179c743d085	0.29696506938422146
59	0x3f813953ac4c6dd7	0.008410123534807674
60	0xbfc067fbd1d20eb2	-0.12817332978385348
61	0x3fd87d1aa260e62c	0.38263574464108063
62	0x3fa2aef9c1de0144	0.03649120799582531
63	0x3fc82885bc74f5a4	0.18873664571758042

bias_output f8 [1, 10]
0	0x0000000000000000	0.0
1	0x0000000000000000	0.0
2	0x0000000000000000	0.0
3	0x0000000000000000	0.0
4	0x0000000000000000	0.0
5	0x0000000000000000	0.0
6	0x0000000000000000	0.0
7	0x0000000000000000	0.0
8	0x0000000000000000	0.0
9	0x0000000000000000	0.0
