trained_model.npz (npz, 408196 bytes, 4 tensors)

weights_input_hidden f8 [784, 64]
00000000: 5230 f7b0 f957 693f 303b 987a 6cf6 7d3f
00000010: 6964 3c80 5498 803f d2a0 dc68 d37b a33f
00000020: a9c0 3624 9d28 a33f 6bba 996f 4661 65bf
00000030: ef82 b581 c587 813f 9426 a11e 0cd3 9abf
00000040: 1beb b737 c742 acbf 020c 2c49 e667 993f
00000050: 75bf b8ec d0c1 943f 2f8f bbe8 947d 83bf
00000060: c9c1 e983 20f8 803f 1ebd e45b b343 95bf
00000070: 4af8 5040 f81c a83f 1643 50ab c6f7 a43f
00000080: aeae d81c 337f a03f 2840 31f2 772b 473f
00000090: deef b5fc 2b87 a1bf c317 3aec a61e a2bf
000000a0: 9d40 f99a 40ca 923f c470 23b8 3d7f a3bf
000000b0: 2e12 25cc 1e19 ac3f 78e3 42b5 1b9b 75bf
000000c0: fd67 a97d 1657 9cbf 7add 6880 ea93 85bf
000000d0: 2dda 3711 9f2f 963f a895 5713 1d96 a4bf
000000e0: fbf3 13a5 ab20 843f 06a1 d307 f985 9f3f
000000f0: ca22 e4f3 2b55 a63f 97a3 be59 de58 a13f
00000100: 3ec9 5cf5 e041 76bf 0e0b dc86 0784 3d3f
00000110: 451c b526 27bb ad3f e3de 859c 20ea 35bf
00000120: 50da ac04 e8aa 8f3f 6579 1fe6 9730 89bf
00000130: 064f 2936 d05d 9ebf 9670 ca13 2ced a7bf
00000140: d1d4 9c57 c7dc 913f 2ba4 48e0 ec81 a6bf
00000150: c308 da1f 1726 9fbf 94e6 8eb6 e7ed a33f
00000160: b955 d76b be5a 9bbf 39db 599f 3ec0 a8bf
00000170: 0701 5460 12d2 a8bf ff72 097b 1c76 8fbf
00000180: 958a 8433 3c21 99bf 94b7 3652 356c 92bf
00000190: 4e68 a10d 377d 92bf c2f7 3fd1 ffd1 893f
000001a0: 3426 efa0 db2d abbf bc77 a424 7f15 7e3f
000001b0: bd96 5701 e3c1 92bf e691 ab7b 7c99 823f
000001c0: 913e 681c e1e8 923f ad98 b478 90b9 a3bf
000001d0: 9b20 8096 6796 7abf 219b 3b01 9a16 80bf
000001e0: b885 42b6 acce 6bbf 433b ef6e ccbd 9bbf
000001f0: 3922 80f4 e712 b4bf ef84 b4d6 5909 afbf
00000200: b975 37ab d59f 9e3f e215 bc8e 6a11 aabf
00000210: 1f53 db6f 16f5 ae3f 1100 1bba bd25 9bbf
00000220: 1f24 9604 9406 8abf ecb4 5ca9 62f1 753f
00000230: 822d bbf7 b820 a23f f14b 7d64 d795 99bf
00000240: bfde fb71 f268 7ebf eca1 7f3f aff9 8c3f
00000250: 2af5 bee2 30ff 93bf 272a a4fc 790f 703f
00000260: b9bd 68f9 1798 71bf b67b c636 4f7d a43f
00000270: 37bd 38d7 fbdf a93f 36ac 424c 664b 78bf
00000280: 0331 2aab a5fb 6d3f f9a7 e705 4e35 913f
00000290: d7b0 eef2 c721 95bf e9ce 0694 d04f 73bf
000002a0: 9d81 96a1 3d43 74bf 2578 e1e9 8419 a73f
000002b0: 7da4 c513 0207 763f 41e0 031d f59d a9bf
000002c0: fbe1 bd58 e1df 993f 0fd3 d44f 47e3 8d3f
000002d0: 023b b256 0c71 a83f cca5 1fb8 19e9 7a3f
000002e0: f3aa 39b1 86a8 95bf 5deb 177f a62b aabf
000002f0: 849a f7ef e7a7 8d3f 9d01 8c4b 57c6 b43f
00000300: db2b a566 f1e0 84bf 2a22 b4ae 1509 8c3f
00000310: dfb7 36fb 5ba3 9dbf d409 c2e6 c650 8d3f
00000320: 69b1 2eab 3ebb a13f e194 e87d 501c b03f
00000330: be3c 92aa ea36 863f f011 e371 a3e4 7bbf
00000340: 51b1 e993 97de 8fbf c721 bb15 bbf7 ad3f
00000350: 77f3 1773 8101 93bf 5e16 f477 24b4 843f
00000360: 4e62 0df4 3af0 61bf 7170 6023 00bf 9abf
00000370: 5592 0e5e 87d7 91bf 20b1 f540 3e3e 9ebf
00000380: 2349 b0e7 15a9 59bf 0567 4b48 5479 953f
00000390: d6e7 ba25 6dea 923f ac67 6300 08bb a8bf
000003a0: 3028 d453 502d 98bf b748 57e2 d722 b03f
000003b0: a0cc 5589 8a62 97bf e025 76ec 24e3 8c3f
000003c0: ae30 6d59 f0e8 903f 8e4d bb71 c818 92bf
000003d0: 7e0f 457d a869 adbf bedd 24bd a357 a4bf
000003e0: f2cc abe0 ad1d 80bf 32cb 816e a442 adbf
000003f0: 5843 a5ec 6a4a a53f ed9d f367 0a50 823f
00000400: 4f9b 716a 9760 a53f 5c62 63c5 f1a7 683f
00000410: fd64 aebb 3d13 a4bf 81c3 fa8c c4f6 6c3f
00000420: 8ee6 0167 82ab 993f e671 939e 34c9 853f
00000430: bcec 9040 5637 913f c989 4b4d 4f2f 87bf
00000440: ee36 435d f161 a3bf 45f9 3ce2 5d2d 933f
00000450: 5ffa d87f 4cad a63f 5476 5dfc c2c5 a0bf
00000460: 5556 6ac4 3560 a3bf 0470 48da d766 9bbf
00000470: c265 ea11 a84a 78bf fff0 5a8f 9fb5 a0bf
00000480: f543 9ea2 fd14 9b3f 8a5d 6876 0730 9d3f
00000490: 618d bb09 9527 9e3f d6be 5436 b20c 82bf
000004a0: c0f8 d051 0a78 8dbf e2c6 357a 8855 a13f
000004b0: fe6e 7ee6 6916 9f3f 8167 7dfe f237 8c3f
000004c0: 6a23 6873 b7db 73bf a1a4 ff63 fdd1 b03f
000004d0: f291 32e2 0995 68bf 3637 fece 31ce a1bf
000004e0: 71e2 625f c272 a83f b98d 73c1 da8e 98bf
000004f0: 3ca3 1323 6047 88bf 5497 39fc ec32 853f
00000500: bcf4 685f 35de a13f 2157 4370 7012 943f
00000510: 346b b746 ae4d 86bf a109 28d5 9642 a2bf
00000520: 04d9 5dac 382a a3bf ceab cd65 efa5 b2bf
00000530: 7461 e604 3c47 93bf 1460 a1f1 e6d0 a83f
00000540: 795c abf2 958f 923f 0ef4 b21e a35d 7cbf
00000550: 82c7 7386 52e0 80bf 7ea9 f6da f5cd 873f
00000560: 9e41 5944 50e9 91bf 5f5b 89d4 0230 913f
00000570: 2304 4cc7 f647 a5bf 211a 1e2a 4397 4fbf
00000580: 600f 52a6 efae a23f 8b37 b5c7 6dd4 7dbf
00000590: ce78 b4fb 97d6 88bf 8cad ee7f 4eb9 ad3f
000005a0: 3c29 dd91 2d12 a13f 94d2 1dc5 3e74 92bf
000005b0: 30d4 c16e af87 a6bf 937a 0433 c968 7a3f
000005c0: 348d 035a 4257 8a3f 875b 689b 14fb 913f
000005d0: 7547 7c01 4579 403f 2d19 d8b8 eca0 9bbf
000005e0: 1525 23f9 04e7 8cbf 02f0 be04 307e 6c3f
000005f0: 8504 443e d8ce af3f 3243 75fc dc6d a3bf
00000600: c5ce fe46 58cc 8d3f be7b c388 9fc3 953f
00000610: 0f4b eeff 5a66 a7bf 354e 2a8a ea23 6bbf
00000620: 2e77 d447 01f7 a83f 9cb6 3b84 50f0 a8bf
00000630: 63de d30d 6a4d a33f a2a2 bd40 dbf3 a6bf
00000640: 7aae 9b53 d3f2 83bf 75f2 3010 2fff 9d3f
00000650: 0835 a50c a313 b93f 6f2e ef7b 1139 8b3f
00000660: 807a 0232 270f ab3f 712c 8fab 1ab2 a13f
00000670: 5552 88c3 3a00 503f 64c6 bb50 842a 6b3f
00000680: e572 f790 551a 873f 3e32 f71a 98d5 8dbf
00000690: 869e 7d04 5759 8bbf c1e3 79da 511a 71bf
000006a0: 0ee9 3463 bb7e adbf ac0e 7a22 c1b1 6d3f
000006b0: 8adf 4f31 10ef 5e3f a0d4 aeb4 a20e 9b3f
000006c0: 8383 12be 94ae abbf 7b7e 9056 c83d a2bf
000006d0: 35f7 76cd b76d 9ebf 9843 c043 1271 a33f
000006e0: cedf fe60 b8d1 a83f 3a4f eb83 a70a b0bf
000006f0: 12c7 7091 2a02 923f 1636 0a78 d163 ab3f
00000700: 5fdf 90e7 6c12 adbf bb9a f7c6 b12e 923f
00000710: b6b8 c8e7 eb6f 9d3f 0ec1 cf75 aee1 a73f
00000720: 341e d8fe afaf a63f f40e c484 f073 803f
00000730: 8d82 35f6 5a76 863f 2527 93af a81d 9e3f
00000740: b367 19c3 ecfb a93f 6753 8e17 63c1 a03f
00000750: a21e e48c 3bba 94bf 25cd 66d8 d6d7 8b3f
00000760: f1d8 1881 3dc7 7ebf 64cd 1cee 093d 81bf
00000770: 234e d8f7 ba83 903f 6113 0b36 d69e 4dbf
00000780: 8d86 b183 5807 a6bf ee73 644b 5de9 703f
00000790: 51bf c7f9 a23c a2bf 0877 3412 1cfb 94bf
000007a0: 29ce 2bcd d066 9ebf a0af 5211 12c7 aebf
000007b0: 2fe2 f6d3 d6fa 033f edb4 3117 af8e 7bbf
000007c0: 6403 4c66 aeaf 303f 5934 1a50 882b 5b3f
000007d0: 7ee9 91a7 5e84 abbf cc8a bb2a f6e1 aebf
000007e0: 92c8 a863 3e7a 6d3f c8dd a1db 6408 a43f
000007f0: b978 710e a214 92bf 44f2 11d6 ae83 9fbf
0.0030937077314998973 0.007315086122175171 0.008103046573113741 0.038054091024891115 0.037419233961715044 -0.0026098609640066626 0.008559744854836874 -0.026195706719852455
-0.05519697718769675 0.024810407844608313 0.020270599792808725 -0.009516871788441598 0.008285764718693482 -0.020766069873556885 0.04709602151022858 0.0409528812525705
0.032220456382075255 0.0007070861505642555 -0.03423440418097788 -0.035390106521887364 0.01834965654262587 -0.038080147483670085 0.05487915269853648 -0.005274875864579857
-0.027675963802131765 -0.010536033672095203 0.021666036058343763 -0.04020777569875672 0.009827939009932498 0.030784503081037883 0.04361855842768632 0.0338811382819763
-0.005433920616086772 0.0004503744483913976 0.05806848857405859 -0.0003343896501273159 0.01546269668834302 -0.012299715719504343 -0.029654744439837642 -0.04673135511004138
0.017443766329240887 -0.043960001352680265 -0.03041874057681394 0.03892444709295009 -0.026713347751714276 -0.04834171004488614 -0.048477720507436976 -0.015361998085773985
-0.024540844578164373 -0.017990906851700197 -0.01805578251546818 0.012607573102282891 -0.05308424319771313 0.007344719555730291 -0.01831774421397968 0.009081814312090718
0.018466489180410554 -0.03852511857466943 -0.006491093292432161 -0.007855609095214046 -0.003394448593170476 -0.027091211577324314 -0.07841348380328207 -0.060618216952443287
0.02990659577868879 -0.05091412536971142 0.060463620333086825 -0.02651115845105784 -0.012707859411209608 0.005357156178246596 0.03540590309202242 -0.024985661991490053
-0.007424304057842056 0.014148110509226229 -0.019528163756821794 0.003921009551286526 -0.004295438432151349 0.04001853507656199 0.05053698541848422 -0.005931281663076373
0.0036600337710465127 0.01680490408936206 -0.020636676981369142 -0.004714789160448631 -0.0049469382733210695 0.045116570997137985 0.005377777208516507 -0.050033244888198165
0.025268097916951487 0.014593655704268764 0.04773748930266743 0.00656995817733148 -0.02115068871209309 -0.05111427594598326 0.014480411539762324 0.08115144342810372
-0.01019466967104237 0.01368920268443315 -0.028943478782529893 0.014314226071523807 0.03463168944958534 0.06293204378069418 0.010846932726307986 -0.006809843498733134
-0.015561279488985365 0.05853066101332476 -0.01856043114638647 0.010109219465913085 -0.0021897460396014595 -0.026119234236930248 -0.01742373954370387 -0.029534313883616936
-0.0015661920467705058 0.02097064677477702 0.01847239058290725 -0.048301935241127 -0.0236103583493234 0.06303166652586155 -0.022836842186234052 0.014105118242485781
0.01651359124962031 -0.017672664586667212 -0.0574467327992627 -0.03973113712202857 -0.007869108599584316 -0.05714906548464284 0.041583386790654486 0.008941727921821541
0.04175255941736699 0.003009769639089206 -0.03920929828673001 0.0035356367951284167 0.025068318879198297 0.010637675370554111 0.016812656107714416 -0.011320704981191991
-0.03785661948641726 0.018727747853739336 0.04429091511382376 -0.03275880175236226 -0.0378433992638462 -0.0267595030764909 -0.005930573008890718 -0.03263567566816227
0.02644726090472101 0.028503529169112286 0.029447869032890654 -0.00881327846818129 -0.014389114972911066 0.033855690878125136 0.030358938878278778 0.013778589621938899
-0.004848209957807418 0.06570419017193042 -0.003000754646182318 -0.034776264684394695 0.04775054373152877 -0.023982446725211413 -0.011854888029533599 0.010351039359374127
0.03489844121620808 0.019601590015404406 -0.010890351803870858 -0.0356642852020912 -0.037431498566478566 -0.07284446940836561 -0.01882642536074415 0.04846879672612672
0.01812586110721923 -0.006925236880474207 -0.008240360954434815 0.01162330698465008 -0.017491583034201612 0.01678471014232785 -0.041564666584243314 -0.0009640768005148606
0.03649090676574818 -0.00728266604285278 -0.012128054970670734 0.05805440246271151 0.03334181218686402 -0.018021565228496586 -0.04400394656196516 0.006447587904658508
0.012861746189122593 0.01755935858281135 0.0005027377073665145 -0.02698106649588643 -0.014112509587351366 0.0034781396734313583 0.062124974823754044 -0.037947564904817446
0.014549913088422692 0.021254055712116353 -0.04570278524547266 -0.0033130246022865747 0.04875949861364713 -0.04870845426726797 0.03769999903482526 -0.044829227116513395
-0.009740496624963447 0.029293761599762342 0.09795588549350864 0.013292442888903381 0.05284998403043506 0.03456195205907243 0.0009766172280524417 0.0033161720547177243
0.011280697332887122 -0.014567554781842348 -0.01335399610952882 -0.004175491084986883 -0.05760751329440171 0.003624798980867391 0.0018880518084624953 0.026423017766962986
-0.05406632251948109 -0.03562761360830976 -0.029715415874071744 0.03797204091109235 0.048475038376124865 -0.06266257258112953 0.017586388709054886 0.05349592771845495
-0.05678119971020012 0.017756250161165648 0.02874725916097339 0.046643688088695 0.04430913911715742 0.00803363709611158 0.010967932356551269 0.02941001483558305
0.05075015908796789 0.03272542631672231 -0.02024167106085762 0.013595274428416968 -0.007514229060282527 -0.008417203501813027 0.01612751138425329 -0.0009039445831936327
-0.04302479369722532 0.004128803664824139 -0.03561887072635151 -0.02048915730585235 -0.029689085505152733 -0.060112537970183455 3.810852148994727e-05 -0.00672787089125147
0.000254612043406202 0.0016583281689322076 -0.05374427600414132 -0.06031770011556645 0.0035983294049169523 0.039126540957052536 -0.017656833774133605 -0.030775768104364568

weights_hidden_output f8 [64, 10]
00000000: 1782 6146 b986 d1bf 40a1 e938 a1e8 c4bf
00000010: cad4 e726 6ef2 8abf 255b e2a4 3885 9b3f
00000020: 917a a0f5 6bff c33f 7910 6d94 4b58 c1bf
00000030: 7033 5dc3 9fcf a93f 9a66 e794 5dff dabf
00000040: f4bc 06ba cc51 cebf 6ff4 9a59 e511 dd3f
00000050: 6895 654b 880a e0bf 9f4e 501e df47 ed3f
00000060: cc1b a2ae 6b2c e8bf d6c4 a1e8 51ac c2bf
00000070: d5fb 85c2 87a8 dbbf 45da 6b88 f189 ee3f
00000080: ac07 120c 79eb f33f 796c c0f9 8705 e1bf
00000090: 38b6 8e54 dff8 b93f a794 aecf 3957 d5bf
000000a0: 377b 05b0 a226 a3bf 923b eee5 bae2 cdbf
000000b0: 3388 80f9 a8c8 d8bf fa39 e90d 31e6 f03f
000000c0: 0457 9640 4067 d7bf 3c0d 4ea5 0bea f0bf
000000d0: e2c1 0025 3458 e63f 78a9 4157 08c1 d3bf
000000e0: fa3c 1cda d720 e43f 3798 7273 ee6a 91bf
000000f0: db50 3994 c9b4 c23f d839 ce8f c5a7 e2bf
00000100: 981d 5e0a 0730 e43f d618 e008 b229 e63f
00000110: dab4 2846 0633 d3bf b9e0 c9e6 ebed babf
00000120: e6c2 1047 d13d edbf 1b76 6fc7 e40a aebf
00000130: 9afb 9c0f c473 d63f 9ade 4dfb 7375 cdbf
00000140: 30ad 19ac 2d1f e43f ba09 b399 0f34 a33f
00000150: 7d3a 3796 4a1c fa3f 99b7 d8b0 bc1e edbf
00000160: f33b 2fab 2bb1 f4bf b502 abfb ec0e b8bf
00000170: 4643 dc88 d552 8b3f 33c1 e57f c2aa ea3f
00000180: 0997 dcfb 4cf9 d6bf f489 5ef2 9bd6 e5bf
00000190: b7a8 82db 23c5 cabf 57e8 cc51 6269 d2bf
000001a0: 35ae 3f73 3509 b5bf 077b edcd 1fc3 c0bf
000001b0: 9134 e2a9 a5a7 e13f d18e e5c7 c813 e7bf
000001c0: 8a84 ddd9 c73e f1bf 633e e29c ae78 f13f
000001d0: bfee 3c60 1e4f e23f 33df a23f 0dbf d43f
000001e0: a9e4 ff24 c1a6 e9bf 1caa 9d31 dc26 de3f
000001f0: f161 db10 d313 c73f 3e3c 5892 7d6b c33f
00000200: f5f1 0f6f 8082 b6bf 8c3a 2758 087a e2bf
00000210: 8d05 ecd5 b9e0 f5bf 12dc 4c07 7afa bfbf
00000220: b4ca de6d 2b14 e33f 4d5a cbee 076e e93f
00000230: 9328 1c40 f41f eabf bcd4 1207 2d2d cb3f
00000240: d026 6e2f 27d5 d2bf 3f4b 0155 7f06 d43f
00000250: 85ac f938 e240 cf3f 6341 b299 2d33 dabf
00000260: 82e9 ca07 5533 bcbf 22b6 8d54 cf50 dfbf
00000270: df0f bb55 ef2f ca3f 68e8 5066 e031 e83f
00000280: b45b d244 40ef f7bf ec3e b803 c3b0 e3bf
00000290: c7a6 e8eb 8027 ce3f c7df 3663 9b83 f33f
000002a0: 7d59 fb0e cc80 d6bf a219 28d5 6415 eb3f
000002b0: 45bc faeb 5feb d9bf 5e30 4408 48f9 e73f
000002c0: 1b62 d51e b5bf e13f e122 3c36 2902 d9bf
000002d0: 0a16 2fb9 b3e2 cd3f 895e 81b8 5d2a e33f
000002e0: dd8d 333f 73ba b7bf 0482 62e3 d6c4 f2bf
000002f0: bcb2 1496 fa38 f5bf 6e0b 560c b774 b9bf
00000300: 506c 90af ee32 ed3f f02d b8da 85fa b33f
00000310: df7a 6e34 9835 e1bf 9629 0e91 aca0 d93f
00000320: e092 2d07 7ade c9bf df33 a190 a079 c4bf
00000330: 44d5 c01c 43fe d7bf de31 ebae 019f f43f
00000340: 49bd c8fb 6516 c83f 197e f292 568a d53f
00000350: 7ddf 8760 ff00 edbf 66bf ff89 271d c1bf
00000360: 8ffa 5936 e6df cd3f abc0 9104 45fc d2bf
00000370: 05e8 1309 4a45 e7bf cedf 8127 cf3c a5bf
00000380: 5086 89a6 d13c d2bf 4f76 af85 d3b1 d13f
00000390: bf78 b370 6c51 c9bf 6724 9d05 173b 77bf
000003a0: d9c1 f1f0 719d 8bbf 1fb4 c027 a437 f33f
000003b0: a3f7 a463 d8cd a53f ecd6 9243 1c70 963f
000003c0: 6782 3b19 e423 dfbf e997 0038 ac57 c4bf
000003d0: bf24 4039 cb68 f7bf 6443 79b3 fc8e ef3f
000003e0: d229 5560 8a41 e23f 5fa6 a637 c11c f33f
000003f0: 3b0f 5739 4fcb e0bf b018 e9ec 5d1c cb3f
00000400: 93ec 8ad6 9c27 dc3f fd04 ceeb 5c5a cebf
00000410: 2338 0db0 4bd7 eabf b271 37cb 2f5d fe3f
00000420: 3b49 6086 b4c1 f5bf ec6f 9989 2541 c8bf
00000430: 7e16 ab60 5537 f33f 57c5 30f5 fb1d a2bf
00000440: 4fda 6596 2a6f e1bf 366a 6584 7585 debf
00000450: 9ade ffe5 9772 da3f bb24 967a d433 d63f
00000460: 88c3 3a30 b50f e6bf 64b2 399f 6ffd c93f
00000470: c463 9c49 5bd8 ccbf 233c cefa 49cd f2bf
00000480: db86 c10d 6b08 b03f c1e3 1055 1fa1 bfbf
00000490: 96de 10ab 13a6 ed3f 5867 9528 86d7 c9bf
000004a0: 42ff a449 4aec c53f 6c07 a010 d6a9 e43f
000004b0: c7a3 48a7 4f9a d7bf 7145 fbd7 5614 f33f
000004c0: 21b2 e387 1b58 d83f 8bad 0e48 ae89 e9bf
000004d0: 3b5a a1d8 d79e f03f 3503 6b20 d801 d8bf
000004e0: 3c90 57f9 c503 9cbf 209d ccde a293 efbf
000004f0: 9bce 6096 9637 d63f a704 5894 2fc0 d4bf
00000500: 8d1d 5697 895f d9bf ee3f e5e8 1dff c03f
00000510: 4639 6963 93e6 d0bf fdf1 57e4 8df7 c2bf
00000520: 7061 ca27 3e4a d4bf 50a8 7991 8984 c33f
00000530: 9330 0f49 10fb cabf f171 37ac 03d5 c2bf
00000540: 393e a639 d123 ff3f 7bbf 0dc8 01bd c0bf
00000550: 453b 69d8 d66f ce3f d84e f20f 19da e53f
00000560: a4a6 7f67 0a3e bbbf b91c cfa0 9677 ca3f
00000570: 8eb5 6502 7419 e0bf cdf6 cdf4 70d4 d53f
00000580: 0d7d 3bd6 844c e1bf bd70 c7e5 5b74 a93f
00000590: eea7 f5aa 53e1 d33f 1082 4d4f 5fd5 f2bf
000005a0: 71d6 f651 5d65 f33f 45c8 2ae2 6a3f cdbf
000005b0: 4ada aee1 903d ec3f 69de 7079 7075 eebf
000005c0: 579e 624a 93a2 c6bf 83ae 39dd 8a4b f43f
000005d0: 1efc cd10 c648 e6bf 8503 052d b209 d8bf
000005e0: 8317 8cce e2a2 f3bf 2156 9948 56cc e33f
000005f0: e123 b814 fb21 e23f c875 c810 85ec 69bf
00000600: 7d6e ed90 ec12 d43f d89b e619 a1f1 e3bf
00000610: 5e2e eccb 5907 b03f 0a1f 903f 8c88 e33f
00000620: 8a6e e23a 035e d63f ea40 110e 6c30 f33f
00000630: 3323 b0c1 00a1 ebbf ca3c ed7d 3de6 f7bf
00000640: f13f c115 ee4f d3bf 8bf8 59b0 3a59 d1bf
00000650: 4b82 4de7 af38 d43f 2ece 793e 643f dcbf
00000660: e93c 252f 7989 fabf a7b3 cdb1 ca91 e43f
00000670: b0b7 d4d3 a514 c93f 899f 601c c351 bcbf
00000680: b867 fe7c c426 f13f 48cc 7e59 4d62 d93f
00000690: 01f9 57a1 bc38 be3f 1231 e42e 544a c9bf
000006a0: 0e12 8d96 3dd4 d53f 1fa4 8d74 61c5 d4bf
000006b0: 6bba 7420 41d5 bd3f d39a 88ce 2f8b dc3f
000006c0: 3ab6 6971 01e0 d53f 3d35 f0ec f3de edbf
000006d0: 5c13 8331 e348 a33f 4cd1 377f acde b1bf
000006e0: 919a abad a1da c1bf f1c0 2930 ac2b b1bf
000006f0: 628f e3ea b083 b43f 391a 230e 14ab c0bf
00000700: c093 4775 0423 c33f 38dd f718 979a c2bf
00000710: 7455 4309 12f9 c3bf 2c10 a727 7974 a4bf
00000720: ffc2 775f 5dff b23f b71e c3c8 f4f3 813f
00000730: d837 783c 772d e13f 44ca a73b 21d3 c3bf
00000740: 118c c59e aea5 a7bf 4423 2316 13ee e23f
00000750: ddd9 fa4e 396d d53f bc71 7f67 29eb f2bf
00000760: 87ae 410f cb1b df3f 3059 585a 4bf7 d6bf
00000770: 9a54 8afe c1e8 dd3f 4471 1f77 764a ecbf
00000780: 7160 6903 109e ddbf 7793 80ca 088b e5bf
00000790: 299b 5fb5 f304 e5bf 6893 c9fe 27a4 d5bf
000007a0: 99b4 eecc 50fb c53f 231b 07e4 1b71 e93f
000007b0: 5b4f 1545 6438 e13f f2cf f3bb bb6f 9bbf
000007c0: 3fb6 2d1f b894 d73f f091 f631 a199 c93f
000007d0: 30d2 ec7c 7da7 e63f 5bad 659c d818 e7bf
000007e0: 62e1 224b 76ae df3f 6ee4 eb77 f8e6 c63f
000007f0: 3241 3b51 5e9c e1bf ce69 bd44 f206 e7bf
-0.27384788392194664 -0.16334929732262005 -0.013157711565308 0.026875386298878774 0.15623235219478152 -0.13550705668797372 0.050412170980599025 -0.42183627644917865
-0.23687132914844933 0.45421727896229575 -0.5012856934160199 0.9150233833374449 -0.7554224406056789 -0.14588378771762817 -0.4321612739221881 0.9543388046720983
1.2449884864331393 -0.5319251897775664 0.1014537412108546 -0.3334488418716525 -0.03740414046000356 -0.233481752653884 -0.38724731793820694 1.0561991256141696
-0.36567694003439066 -1.0571400124761814 0.6982670519556076 -0.3086567737688237 0.6290091762511161 -0.017009473606457184 0.14614219415182714 -0.5829799469664136
0.63086273217134 0.6925897763583417 -0.29998928882089404 -0.10519289383398957 -0.9137960803983247 -0.05867686209215269 0.3508157875511927 -0.23014688273155032
0.628805957921406 0.03750656844342211 1.6319070689966388 -0.9100020841631135 -1.2932545363325942 -0.09397774833906676 0.013341587294719692 0.8333446977613107
-0.3589661082827296 -0.6824474080825085 -0.2091412374332486 -0.2876821326095799 -0.08217176498117669 -0.13095471911488962 0.5517147367514942 -0.7211650757057787
-1.0778273115504668 1.0919633987686204 0.5721580390595234 0.32416087355112494 -0.8016057703636267 0.47112183423328857 0.1802924949941054 0.1517178501676159
-0.08792879783135972 -0.5773965570204651 -1.3673647266699362 -0.12491572073200555 0.5962121148971478 0.7946815170242388 -0.8164006473682711 0.21231615872753717
-0.2942598307787252 0.31289656926417203 0.24416759283062475 -0.4093736649456529 -0.11015826645135543 -0.48930724389251357 0.20458785711355085 0.7560884474144247
-1.4959109009121052 -0.6153273651743496 0.23558055418953058 1.2196306109963062 -0.35161115134305715 0.8463615573135039 -0.40499113125673986 0.7491798554851916
0.5546517946450565 -0.3907568959844366 0.23348089735206684 0.5989216426487057 -0.09268875401499295 -1.173056495878087 -1.3264108526738445 -0.09943718005346877
0.9124673298823698 0.07804142560797067 -0.5377923034719422 0.40043176808890146 -0.20210194921960234 -0.15996176778790436 -0.3748939305108545 1.288819964672363
0.18818354410312058 0.33656849241558146 -0.9063717732778823 -0.1337022231887161 0.23339536336785158 -0.2966473145124932 -0.727208154420851 -0.04147956235186677
-0.2849620939578914 0.2764786534806704 -0.19779735091191772 -0.005671586923036909 -0.013483896413362938 1.2010842850534187 0.04258609978067731 0.021912042259564155
-0.4865656134043434 -0.1589255593727892 -1.4630844341611888 0.9862044816346551 0.5705005532739114 1.1945202039591079 -0.5248180503772127 0.21180318897149197
0.4399177642005238 -0.23713265909103845 -0.8387812078960944 1.8977506578586198 -1.3597913025919997 -0.18948811739653537 1.2010091568094192 -0.03538501136825783
-0.5448201119859933 -0.47689569405852994 0.4132442232216619 0.3469134518750924 -0.6894174520476648 0.20304675364185976 -0.22535267919809432 -1.1751193806737852
0.06262845121230091 -0.12355228258901631 0.926523050416068 -0.20188977223989002 0.1712735042183287 0.645731956931042 -0.3687934049253809 1.1924656330851031
0.38037765760853587 -0.7980567366952739 1.0387800657387192 -0.37511256376096763 -0.027358144134169246 -0.9867719985531131 0.34714283643118343 -0.32423009382916707
-0.3964561441320818 0.13278554794169345 -0.2640732260523645 -0.14817975663744667 -0.3170314205722411 0.15248221972734877 -0.21078685347891177 -0.1471256819630891
1.9462444545678308 -0.13076803463217943 0.23778806273409195 0.6828732787566549 -0.1064154150659769 0.20677454807284848 -0.5031070753881737 0.3410913839978605
-0.5405906852937804 0.049715873526765965 0.31062785811684435 -1.1770928476108828 1.2122472001769007 -0.22849784892383887 0.8825153739806606 -0.9518358585255103
-0.17683640606013526 1.268442978059199 -0.6963835075583835 -0.37559179684108585 -1.227267081093914 0.6186934869717257 0.5666480450319079 -0.0031645392357535253
0.3136550345713898 -0.623245764338999 0.06261216381624865 0.6104184380974129 0.3494880747837007 1.1993217992313085 -0.8634036810845828 -1.4937109869968475
-0.3017535412263888 -0.27107112142392314 0.31595990741883345 -0.4413691148867852 -1.6585628358478124 0.6427968476033258 0.19594261973673843 -0.11062259142693
1.0719647295540948 0.3966248868920883 0.11805323542646208 -0.19758083619706973 0.34107913686992297 -0.3245471609321288 0.11653525392896717 0.44599528474138345
0.3417972190426074 -0.9334659221364415 0.03766546229738907 -0.06980398279103389 -0.13948460559841583 -0.06707264114243451 0.08013444647400328 -0.130220896628275
0.1495061466841019 -0.1453427192607053 -0.15603852703376797 -0.039951120462803 0.0742090566707354 0.008766090752387752 0.5368000203177372 -0.15488067067015454
-0.046185929185206594 0.59156183551486 0.33479149544601033 -1.1824125330814317 0.48607136239909504 -0.3588436491276239 0.4673314080949439 -0.8840896917932146
-0.46277237256209164 -0.6732219653245995 -0.6568544905138413 -0.3381443012388474 0.17173204428164437 0.7950572446505685 0.5381337498933861 -0.02679341635389671
0.3684521011808534 0.2000009054146541 0.7079455795233738 -0.7217829756386139 0.49502332055592124 0.17892366271533738 -0.5503379427482626 -0.7195979445053184

bias_hidden f8 [1, 64]
00000000: 8aca 8953 d510 843f ce0e b926 b4cc b7bf
00000010: fecb 227f c3a9 af3f 7dd5 deb2 ebea b73f
00000020: 20f8 8068 44f0 df3f 3991 1a59 fc67 9e3f
00000030: de1b bbb2 7416 c03f c420 eda1 e4c4 cbbf
00000040: 01c7 173d b7e1 d93f 4085 4bfe 1304 bfbf
00000050: 8c0a 6454 3f9f c4bf 0f33 05e7 5ea7 d03f
00000060: a5ad 3c50 f931 cd3f c1c2 0d22 1f78 d4bf
00000070: 3a86 0b62 f623 dbbf 2369 6274 7143 d5bf
00000080: aa90 6412 d692 c1bf 9a8a c66c 361c c53f
00000090: 253f 72cc 97c2 c33f 72f9 9b9c 6485 da3f
000000a0: 8042 5681 6230 bb3f 0e3c 70e2 d062 6dbf
000000b0: 2847 49c5 331f 72bf 816e d326 1b03 943f
000000c0: 15aa 0733 813d 98bf 26d5 2b93 2c14 953f
000000d0: 9bd7 2529 5065 c73f ac6e 3b81 09b1 91bf
000000e0: fee4 a20c 45b1 bfbf 8e44 ef21 73d1 da3f
000000f0: a159 1a88 97ac bf3f 0b21 82bc 7b92 c3bf
00000100: 822f b89f 1b08 d3bf 2e46 49b1 e711 c53f
00000110: 6ca9 cb9c c128 bfbf 9777 03cb 16d1 b03f
00000120: 1b35 93ff 3ed6 c0bf 2720 c42f 27bc a6bf
00000130: d434 8a4d 2574 c43f 0f27 6a59 b606 d93f
00000140: db2d 36ee c787 d63f 1270 ddda e93b adbf
00000150: 3183 2c44 6958 9c3f 3899 ee57 35b9 c9bf
00000160: 9027 9bda 2d6b c13f f19a 4bf0 3e6c c1bf
00000170: 6042 81ed 6c78 abbf 1455 d145 a9fd df3f
00000180: 5468 b15d 57fd 783f 349c 2526 81c7 93bf
00000190: 6e7e 9550 6d7f a23f 91b6 4e3b eb89 ab3f
000001a0: 2d0e bac8 bc15 cd3f a99c ef5f 4f76 c03f
000001b0: 8294 0165 9e93 8bbf d11a ae02 09b2 d23f
000001c0: 2fe6 c8b1 5856 b9bf 5876 df55 0bcf 9c3f
000001d0: c78d 2f67 75ea 97bf b314 3991 2017 c83f
000001e0: faee fb0e d74a d53f b8ab 46c8 bf8b e03f
000001f0: 2f64 ebda f725 c33f 3288 cfd3 9813 84bf
0.009797731983075115 -0.09296728082068315 0.061842068929216495 0.09342835537866807 0.499039747290114 0.029693549097502745 0.12568529822439606 -0.21694620043331814
0.40440159765340417 -0.12115597685216972 -0.1611098444046387 0.26021549759461576 0.2280875818044993 -0.31983164144098103 -0.42406997275074654 -0.33224140515962314
-0.13729358575904388 0.1649234801416995 0.15437600596168824 0.41439166349291334 0.10620704324379382 -0.003587158181751266 -0.004424288014506485 0.019543098683114216
-0.023672121753330517 0.020584770662897565 0.18277933129473642 -0.01727690554876797 -0.12379867132667141 0.4190337973969428 0.12372729370904391 -0.15290781692989017
-0.29736986730198833 0.16460891872934397 -0.12171564176575139 0.06569044548402157 -0.1315382717060992 -0.04440424402315584 0.1597944859135284 0.39103468639278643
0.35203741324286647 -0.05709772869769848 0.02768101194954226 -0.20096461099201135 0.13608334707378988 -0.13611590130968623 -0.05365314864377946 0.4998572522939224
0.006100980065719314 -0.01931573672609606 0.036128440939816694 0.05378661250084094 0.22722587395775076 0.1286105364262984 -0.013465154130424265 0.29211640607574646
-0.09897379246185588 0.028133561245218125 -0.02335532610221749 0.18820578661885676 0.3326928755120516 0.5170592223779442 0.14959619702747903 -0.009803003276776055

bias_output f8 [1, 10]
00000000: 0000 0000 0000 0000 0000 0000 0000 0000
00000010: 0000 0000 0000 0000 0000 0000 0000 0000
00000020: 0000 0000 0000 0000 0000 0000 0000 0000
00000030: 0000 0000 0000 0000 0000 0000 0000 0000
00000040: 0000 0000 0000 0000 0000 0000 0000 0000
0.0 0.0 0.0 0.0 0.0 0.0 0.0 0.0
0.0 0.0
